mltest/ml-agents-release_19/config/ppo/results/testpilot/CarAgent.onnx (onnx, 73668 bytes, 7 tensors)

network_body._body_endoder.seq_layers.0.weight f4 [128, 8]
-0.73270094 0.49500516 0.12327416 -0.56595963 -0.20222974 0.009422048 -0.48724255 0.00796261
-0.34406853 0.16286835 -0.6010553 0.3202947 -0.22373277 0.06565262 -0.09986276 0.26956826
0.061600387 0.47348687 0.35502025 0.3110537 0.19776614 -0.5203666 0.1423505 -0.07258624
0.5905371 0.7136532 -0.6488384 0.3921448 0.2003332 0.1424665 -0.5480965 -0.10120278
-0.63073224 0.033096522 0.17981297 -0.43067938 0.6258683 -0.17694268 -0.36563838 -0.026544893
0.084174566 -0.6090601 0.08900316 0.19619316 -0.19225545 -0.004794893 -0.21371748 -0.2903155
0.18000847 0.295972 -0.14372675 0.27222013 -0.016571047 -0.8655804 -0.07551564 0.33940208
0.0085843215 0.64343363 -0.53262323 0.062181473 0.20200728 -0.028037662 0.26847947 -0.0734364
0.22414552 0.15105167 0.024219219 -0.5602589 0.0366926 -0.31947553 0.035725694 -0.015285057
0.2974698 0.17115566 -0.2635028 -0.5426658 -0.6439418 -0.15798777 0.25789744 -0.18774402
0.015196723 0.21721308 0.7841337 -0.34818038 0.46262956 0.78333193 -0.10106071 0.10378696
-0.49751216 -0.30815193 0.416933 0.14792055 0.08873323 -0.07853816 -0.15157092 -0.13691805
-0.21482408 -0.16060744 0.52067745 -0.3405712 0.11996268 0.18288283 0.2584768 -0.06977374
-0.4281274 -0.13096991 -0.08614941 0.12402812 -0.00391224 0.2154368 -0.3858756 0.10825729
-0.0602128 0.20554173 -0.22952013 0.25247294 -0.29823694 -0.14169084 -0.03620518 0.266644
0.55275494 -0.7228454 0.25687703 -0.11933513 0.17831355 -0.36633468 -0.048953433 -0.29038918
-0.21992914 0.12367199 0.4214021 -0.1319796 0.39626685 -0.38527152 0.1974855 -0.017423104
-0.785175 0.30868134 0.08912854 -0.17018424 -0.83234847 -0.3660476 -0.17514905 0.015859947
0.15292528 0.1900648 -0.20103398 -0.12534907 -0.5697589 -0.39543772 0.6624674 -0.21898691
0.014729166 0.07537149 -0.33838102 -0.25505614 0.09912267 -0.32129207 0.16721608 0.54819643
0.2846244 -0.33677796 -0.17119992 -0.66465896 -0.8247457 -0.07520787 -0.21296754 -0.3250134
0.024581078 -0.237827 0.49994123 0.14343373 -0.6760644 -0.19193634 0.17839701 -0.0846532
-0.25262046 -0.048071668 -0.11352144 -0.0043600956 -0.009472859 -0.02744539 0.5923617 -0.44052798
-0.054062773 0.45841137 0.06368157 0.090852566 -0.38618127 -0.19784841 0.08110276 -0.57137173
0.45926118 0.0034974138 -0.22328125 0.44273937 -0.055867776 0.14411634 -0.5207909 0.27167192
-0.18059133 0.32510313 0.019017164 -0.7887335 0.16772543 -0.08357411 0.20115598 -0.37936255
0.40970716 0.24609894 -0.20128354 -0.351183 0.021946551 0.0899991 0.06595744 0.44715878
0.31891143 -0.16665791 -0.04080168 0.11411404 -0.09274674 -0.23416068 0.025456425 -0.00978512
0.1540207 -0.1649844 0.3738339 0.113665424 -0.4148326 0.300432 -0.61468315 0.18904576
-0.09721255 -0.3974743 0.025733251 0.123131566 -0.111002214 0.3306952 -0.23378478 -0.15298584
0.26086128 -0.08516097 0.7648294 -0.5724693 -0.35098568 0.35192078 0.90317494 0.13428183
0.43840787 -0.16189104 -0.2887608 -0.1672923 -0.13407455 -0.1823424 0.7008488 0.18592194
00000000: 4a92 3bbf 5171 fd3e 2a77 fc3d bbe2 10bf
00000010: 5015 4fbe ef5e 1a3c db77 f9be 9b75 023c
00000020: c029 b0be f6c6 263e c3de 19bf abfd a33e
00000030: 341a 65be e174 863d d984 ccbd da04 8a3e
00000040: b050 7c3d df6c f23e 37c5 b53e 6e42 9f3e
00000050: 3583 4a3e bf36 05bf 54c4 113e 18a8 94bd
00000060: 702d 173f fab1 363f 461a 26bf 34c7 c83e
00000070: 2524 4d3e bde2 113e 0d50 0cbf 6743 cfbd
00000080: ab77 21bf 3890 073d e420 383e 0282 dcbe
00000090: e838 203f 7630 35be f434 bbbe ad74 d9bc
000000a0: b763 ac3d 5deb 1bbf 4a47 b63d dce6 483e
000000b0: 9dde 44be 7a1e 9dbb c1d8 5abe 3ca4 94be
000000c0: 2454 383e a489 973e 1b2d 13be 7060 8b3e
000000d0: 01c0 87bc ad96 5dbf f2a7 9abd 1cc6 ad3e
000000e0: 41a5 0c3c 11b8 243f ff59 08bf 00b2 7e3d
000000f0: ffda 4e3e 3daf e5bc 2476 893e d365 96bd
00000100: 6786 653e 4aad 1a3e 6267 c63c 216d 0fbf
00000110: fb4a 163d 4c92 a3be 1b55 123d 2d6e 7abc
00000120: f64d 983e 6e43 2f3e d7e9 86be 25ec 0abf
00000130: 5fd9 24bf 8cc7 21be 220b 843e f83f 40be
00000140: adfb 783c 1b6d 5e3e fcbc 483f b344 b2be
00000150: c8dd ec3e 7188 483f ebf8 cebd 428e d43d
00000160: eab9 febe 17c6 9dbe 3e78 d53e 7c78 173e
00000170: c5b9 b53d 9dd8 a0bd 6835 1bbe 3f34 0cbe
00000180: d8fa 5bbe 4776 24be 1e4b 053f 595f aebe
00000190: feae f53d a345 3b3e 1257 843e 89e5 8ebd
000001a0: 8433 dbbe fa1c 06be 1a6f b0bd 7402 fe3d
000001b0: 3f32 80bb 779b 5c3e 7d91 c5be 00b6 dd3d
000001c0: b2a1 76bd 8879 523e 5307 6bbe 2244 813e
000001d0: 83b2 98be 6717 11be e24b 14bd 9085 883e
000001e0: 5981 0d3f 650c 39bf 6385 833e fa65 f4bd
000001f0: d497 363e 3890 bbbe 6583 48bd e4ad 94be
00000200: 1b35 61be be47 fd3d 04c2 d73e a925 07be
00000210: 7de3 ca3e 4f42 c5be a439 4a3e e6ba 8ebc
00000220: 3b01 49bf 7b0b 9e3e 0689 b63d c744 2ebe
00000230: ca14 55bf 976a bbbe 465a 33be b8ec 813c
00000240: 7298 1c3e 59a0 423e dadb 4dbe 825b 00be
00000250: b8db 11bf d076 cabe 7797 293f 1b3e 60be
00000260: 9a52 713c 5e5c 9a3d 4740 adbe b896 82be
00000270: d400 cb3d 6580 a4be b13a 2b3e 9a56 0c3f
00000280: 4aba 913e 296e acbe 084f 2fbe 1727 2abf
00000290: 8922 53bf 9506 9abd 2a14 5abe 2868 a6be
000002a0: 425e c93c ec88 73be 4cf8 ff3e 4be0 123e
000002b0: 8e12 2dbf f68a 44be b5ad 363e a85e adbd
000002c0: 7857 81be cce6 44bd ee7d e8bd 22df 8ebb
000002d0: 0d34 1bbc 28d5 e0bc 04a5 173f e28c e1be
000002e0: ed70 5dbd e5b4 ea3e 7c6b 823d e910 ba3d
000002f0: 8db9 c5be c698 4abe 3419 a63d 6b45 12bf
00000300: 4824 eb3e de34 653b d7a3 64be bcae e23e
00000310: 9cd5 64bd 3c93 133e 8d52 05bf 9518 8b3e
00000320: efec 38be eb73 a63e e2c9 9b3c 70ea 49bf
00000330: 37c0 2b3e e728 abbd d5fb 4d3e cf3b c2be
00000340: 23c5 d13e 5c01 7c3e 461d 4ebe 42ce b3be
00000350: 41c9 b33c 7351 b83d b214 873d fff1 e43e
00000360: 5c48 a33e 5fa8 2abe aa1f 27bd 9fb4 e93d
00000370: 01f2 bdbd d1c7 6fbe fe89 d03c c551 20bc
00000380: 9ab7 1d3e acf1 28be 2867 bf3e 6bc9 e83d
00000390: f064 d4be 39d2 993e e05b 1dbf 3695 413e
000003a0: 6017 c7bd c081 cbbe 8ace d23c 672c fc3d
000003b0: 2155 e3bd e250 a93e 4765 6fbe 52a8 1cbe
000003c0: 9c8f 853e e068 aebd dccb 433f 598d 12bf
000003d0: 65b4 b3be f62e b43e 7936 673f 2d81 093e
000003e0: ff76 e03e c4c6 25be 75d8 93be ac4e 2bbe
000003f0: d74a 09be f7b7 3abe d46a 333f 5262 3e3e

network_body._body_endoder.seq_layers.0.bias f4 [128]
0.008735414 -0.0036184809 -0.0046379142 -0.009440157 0.005035339 0.0062713753 0.017108206 0.003255768
-0.018026013 0.0009525606 -0.014282262 0.015719835 -0.0011074031 0.008005165 -0.0063153245 0.0022962978
-0.02988121 0.022838827 -0.008609675 -0.006918389 0.016136222 -0.013632568 -0.009487821 -0.010492941
-0.005529368 -0.0024161525 0.017023165 0.008630272 -0.017249329 0.0055748555 -0.014456489 0.014174993
0.021208918 -0.011518859 -0.0060416386 -0.014433049 -0.004343994 -0.01766199 0.015786598 0.010332962
0.008216502 -0.02451913 -0.022453127 0.008870365 -0.00904543 -0.00023365885 -0.007971215 -0.022398213
0.0073220627 0.0044031544 -0.011731038 0.0060612727 0.012633851 -0.006506829 -0.005386977 0.01152509
-0.012071409 0.008108713 0.0023160307 -0.0025233952 -0.005116884 0.011612021 0.0045220433 -0.021863101
-0.0012440392 0.01105293 0.010532183 -0.00030833416 -0.011557357 0.003442459 -0.008188572 -0.0034159785
0.009354442 0.014895405 -0.003213424 -0.010721544 0.006139966 -0.028464124 -0.0027838945 -0.007932554
-0.007602558 -0.018328585 -0.013902385 0.009784622 -0.01384724 -0.00019450726 0.006655372 -0.0036035855
0.0027975875 0.0149768405 -0.022700135 -0.0030848992 0.012799531 0.0053070975 -0.010056484 -0.01442987
0.0021173644 0.0012316218 -0.004862316 -0.017001644 -0.0056871623 -0.025275545 0.0049532796 -0.023807041
0.0061192797 -0.0006342798 -0.006824701 0.004433283 0.0054118265 -0.0069109155 -0.00011204702 0.00035729277
-0.007998022 0.015701396 -0.013245313 0.012370827 0.006837828 0.00026856633 0.008524289 -0.009244876
0.00027101143 -0.011795395 0.017261224 -0.0155795375 0.0007820816 0.0019533155 -0.005217901 -0.010614752
00000000: fb1e 0f3c 0924 6dbb a5f9 97bb e3aa 1abc
00000010: 7cff a43b 1c80 cd3b 8226 8c3c b95e 553b
00000020: 4aab 93bc 42b5 793a 2600 6abc e2c6 803c
00000030: 4826 91ba 1828 033c c8f0 cebb 7c7d 163b
00000040: 70c9 f4bc 7e18 bb3c 980f 0dbc a7b3 e2bb
00000050: 1c30 843c 225b 5fbc ce72 1bbc 96ea 2bbc
00000060: b32f b5bb 5058 1ebb 2a74 8b3c fc65 0d3c
00000070: 774e 8dbc 47ad b63b e9da 6cbc 3b3e 683c
00000080: 53be ad3c 99b9 3cbc f0f8 c5bb 9878 6cbc
00000090: 1058 8ebb e1af 90bc e552 813c 954b 293c
000000a0: 829e 063c 58dc c8bc 9fef b7bc 0255 113c
000000b0: 4933 14bc 5202 75b9 b399 02bc 757c b7bc
000000c0: eaed ef3b 5648 903b 8a33 40bc a49d c63b
000000d0: 36fe 4e3c 3d37 d5bb 3d85 b0bb bbd3 3c3c
000000e0: 29c7 45bc 68da 043c 8cc8 173b 8c5f 25bb
000000f0: 89ab a7bb 5940 3e3c a62d 943b 3f1a b3bc
00000100: 070f a3ba 5917 353c 2d8f 2c3c e9a7 a1b9
00000110: 125b 3dbc e19a 613b 5c29 06bc 9cde 5fbb
00000120: 6043 193c db0b 743c 4f98 52bb 6aa9 2fbc
00000130: c531 c93b 982d e9bc 0072 36bb 8bf7 01bc
00000140: e11e f9bb d425 96bc d4c6 63bc ae4f 203c
00000150: 89df 62bc a5f4 4bb9 4f15 da3b 222a 6cbb
00000160: bb57 373b 6c61 753c a2f5 b9bc 052c 4abb
00000170: 20b5 513c 29e7 ad3b f3c3 24bc 436b 6cbc
00000180: 7bc3 0a3b 5f6e a13a 1054 9fbb 0847 8bbc
00000190: 605b babb a90e cfbc 1f4f a23b fc06 c3bc
000001a0: 3d84 c83b cc45 26ba bea1 dfbb 1345 913b
000001b0: b155 b13b f674 e2bb c9fa eab8 0653 bb39
000001c0: 230a 03bc 37a0 803c df02 59bc 02af 4a3c
000001d0: dc0f e03b 5dce 8c39 76a9 0b3c d277 17bc
000001e0: 8a16 8e39 7941 41bc 6967 8d3c 5141 7fbc
000001f0: 9c04 4d3a 3203 003b edfa aabb 7fe9 2dbc

network_body._body_endoder.seq_layers.2.weight f4 [128, 128]
0.13608177 0.0031912504 0.016628137 0.06241893 0.00028464588 -0.0039114323 0.097306184 0.14344202
0.021460699 0.10425904 -0.14158182 -0.05689071 -0.00856403 0.017523516 -0.11997543 -0.00863808
-0.0014225718 -0.16635112 0.021910412 0.0058005853 0.088692 0.026274532 -0.01981078 0.18327442
0.10973567 0.019247668 0.1122048 0.13089173 0.0892352 0.11680632 -0.17206858 -0.16720748
0.08047253 -0.12337897 0.08069205 0.030089932 0.046744823 0.00885393 0.06965118 0.10706903
0.026630996 -0.0013829372 0.08812176 -0.025354037 -0.12875025 -0.037696622 0.06142996 0.17282099
0.07838 -0.023611844 0.014802319 -0.0001684092 -0.082780346 -0.026410371 0.15840355 -0.014228438
-0.07082936 0.21271673 0.092614904 -0.011252982 0.092844725 -0.015173889 0.07368355 -0.045540407
0.007430993 -0.07507171 -0.02448553 -0.05898106 -0.060183942 0.08427644 -0.059898153 -0.06753374
-0.033816457 -0.101603076 -0.019817512 -0.018202707 0.0030317742 -0.25069746 -0.086897925 -0.0016109167
0.085106805 0.03145001 -0.054052286 -0.022030149 -0.03858525 0.046156757 -0.0493235 0.0011166297
0.064068586 0.11822563 -0.07732359 -0.0816897 0.03575508 -0.064817555 0.04108108 -0.11555722
0.08170172 -0.062100586 0.019156963 -0.15259537 -0.07422364 -0.019607026 0.012646686 0.053412266
-0.06335559 0.11929348 0.01474423 0.028492974 -0.064007685 0.08815883 0.10148175 -0.09082671
-0.040443562 -0.03715024 0.019548258 -0.010904315 -0.024722654 0.15255521 -0.033053767 -0.10254682
-0.15148751 0.15975425 -0.011255352 0.044694602 0.08513224 -0.03423551 -0.08836355 0.097842805
-0.036765814 0.043027397 0.01604057 0.13571958 -0.05038956 0.02009712 -0.05541896 0.07280718
0.010566198 -0.07691591 0.092701614 0.016529534 0.119227074 0.0213584 -0.22475341 0.060569886
0.18270712 0.12868847 0.015280338 -0.042497743 0.124111585 -0.10118216 -0.049255412 -0.12813812
0.015802111 0.086215384 -0.15647788 -0.009244152 -0.04255503 -0.014548177 -0.1096748 -0.00795703
-0.08001283 -0.074578494 -0.11086691 0.11819546 -0.019395117 0.048287194 0.028793573 0.11753262
-0.084164426 -0.017105872 0.040783882 0.06929553 0.023089945 -0.041582126 -0.049738616 -0.1192584
0.024448395 -0.08513622 0.028985532 0.07177174 0.07072406 -0.05724762 -0.072800264 -0.037375707
0.008094081 -0.08825045 0.061456077 0.15157065 -0.06981357 0.10950118 -0.056078553 0.046599295
-0.008588968 -0.0072103343 -0.058953743 -0.049550187 0.099165514 0.026662352 0.04317628 0.10464943
-0.1624454 0.12175988 0.032589193 -0.066639476 -0.0029535103 -0.058567204 0.013058225 0.013127952
0.048629716 -0.03971782 0.047706123 0.2330064 0.06382996 -0.054383833 -0.07645706 -0.078155845
0.079932995 0.033649635 0.0048658755 -0.07058628 -0.089021035 -0.078072585 0.055047538 -0.010300789
-0.03208052 0.05493405 -0.10981132 0.049045175 -0.07509077 0.06267815 -0.1370074 -0.09798194
-0.11152619 0.07410842 0.09237504 0.120244116 -0.08786614 0.014193174 -0.022659734 0.10437467
0.07037493 -0.1344163 0.03200029 -0.049501415 -0.01379149 0.080715105 -0.046008684 0.015549887
0.077490844 0.1011153 0.11003962 -0.06456337 0.06234577 -0.05166518 -0.18457617 0.05692161
00000000: 0559 0b3e 4c24 513b bb37 883c feaa 7f3d
00000010: 863c 9539 792b 80bb 7748 c73d 77e2 123e
00000020: 59ce af3c c385 d53d d3fa 10be 3c06 69bd
00000030: 2550 0cbc 7a8d 8f3c aeb5 f5bd bc86 0dbc
00000040: 9775 baba f357 2abe 777d b33c d612 be3b
00000050: 27a4 b53d b03d d73c 384a a2bc 4aac 3b3e
00000060: 18bd e03d 49ad 9d3c a1cb e53d 7b08 063e
00000070: f2c0 b63d 2738 ef3d bf32 30be 7038 2bbe
00000080: c8ce a43d 1dae fcbd e041 a53d 297f f63c
00000090: 8077 3f3d 1310 113c 47a5 8e3d 0247 db3d
000000a0: 3f29 da3c ac43 b5ba 2e79 b43d 45b3 cfbc
000000b0: 1bd7 03be c667 1abd fb9d 7b3d fcf7 303e
000000c0: b285 a03d a06d c1bc 6d85 723c 0097 30b9
000000d0: be88 a9bd 905a d8bc 8a34 223e 651e 69bc
000000e0: fc0e 91bd 6ad2 593e e2ac bd3d 6d5e 38bc
000000f0: 6025 be3d e79b 78bc 67e7 963d 9488 3abd
00000100: b07f f33b 32bf 99bd e195 c8bc 2096 71bd
00000110: 7083 76bd 2099 ac3d c457 75bd 214f 8abd
00000120: 2083 0abd 4615 d0bd 5658 a2bc d81d 95bc
00000130: bbb0 463b 6b5b 80be 8af7 b1bd 6525 d3ba
00000140: 7a4c ae3d bad1 003d ee65 5dbd 9278 b4bc
00000150: 910b 1ebd de0e 3d3d 7007 4abd e05b 923a
00000160: 6436 833d 4720 f23d d55b 9ebd ee4c a7bd
00000170: eb73 123d 11bf 84bd a244 283d 44a9 ecbd
00000180: 3b53 a73d 2f5d 7ebd 10ef 9c3c f641 1cbe
00000190: 9002 98bd ea9e a0bc 0c34 4f3c d2c6 5a3d
000001a0: 93c0 81bd 2450 f43d c891 713c 196a e93c
000001b0: 7616 83bd 9e8c b43d aad5 cf3d 5b03 babd
000001c0: 26a8 25bd da2a 18bd ab23 a03c 03a8 32bc
000001d0: 2a87 cabc 6f37 1c3e 6363 07bd 1104 d2bd
000001e0: 8b1f 1bbe 9e96 233e 5e68 38bc b011 373d
000001f0: d059 ae3d 893a 0cbd f3f7 b4bd cf61 c83d
00000200: c097 16bd 7f3d 303d 8367 833c 13fa 0a3e
00000210: 4965 4ebd b7a2 a43c fefe 62bd ee1b 953d
00000220: d91d 2d3c 1786 9dbd 58da bd3d f268 873c
00000230: 532d f43d d0f7 ae3c c225 66be 2118 783d
00000240: 9317 3b3e e9c6 033e 625a 7a3c 1d12 2ebd
00000250: 372e fe3d 9838 cfbd 0bc0 49bd a436 03be
00000260: 6e73 813c b191 b03d bd3b 20be c974 17bc
00000270: 2f4e 2ebd 7a5b 6ebc 2e9d e0bd 345e 02bc
00000280: c4dd a3bd 9cbc 98bd 310e e3bd 7610 f23d
00000290: 82e2 9ebc cbc8 453d 80e0 eb3c f1b4 f03d
000002a0: 665e acbd 9d21 8cbc 000d 273d d1ea 8d3d
000002b0: 2027 bd3c 0552 2abd b8ba 4bbd bf3d f4bd
000002c0: 0048 c83c e65b aebd 1173 ed3c 10fd 923d
000002d0: c7d7 903d 7b7c 6abd 4e18 95bd 4517 19bd
000002e0: 099d 043c a7bc b4bd 5eb9 7b3d 5635 1b3e
000002f0: 6bfa 8ebd 2842 e03d a0b2 65bd e7de 3e3d
00000300: beb8 0cbc ab44 ecbb 7b79 71bd 23f5 4abd
00000310: 4a17 cb3d 016b da3c 9cd9 303d 7152 d63d
00000320: 1658 26be 3e5d f93d 3f7c 053d 477a 88bd
00000330: ae8f 41bb 2ae4 6fbd 2af2 553c 9f16 573c
00000340: f42f 473d 27af 22bd 7f67 433d 3b99 6e3e
00000350: 48b9 823d 95c1 5ebd 8595 9cbd 2c10 a0bd
00000360: e9b3 a33d 33d4 093d ec71 9f3b 8a8f 90bd
00000370: a950 b6bd 85e4 9fbd 8779 613d a4c4 28bc
00000380: dd66 03bd 8702 613d c2e4 e0bd 98e3 483d
00000390: 31c9 99bd 675d 803d ab4b 0cbe c1aa c8bd
000003a0: d867 e4bd 28c6 973d 202f bd3d 8c42 f63d
000003b0: 2af3 b3bd 7d8a 683c e8a0 b9bc 63c2 d53d
000003c0: bb20 903d 6da4 09be bc12 033d ffc1 4abd
000003d0: b4f5 61bc f64d a53d 9a73 3cbd f4c4 7e3c
000003e0: 85b3 9e3d 8a15 cf3d 745c e13d cd39 84bd
000003f0: 475e 7f3d de9e 53bd 8901 3dbe a226 693d

network_body._body_endoder.seq_layers.2.bias f4 [128]
-0.0015147651 -5.420613e-05 -0.0036768895 0.019095412 -0.009787555 0.0027750612 -0.0010848235 -0.011475247
-0.0061321543 0.018448364 -0.0043698223 -0.009953428 -0.016343057 0.01808968 0.004115722 -0.005404291
-0.011257392 0.033613812 -0.0015493991 -0.016741877 0.0043771076 0.013770403 -0.004483961 -0.009353423
6.0005437e-05 0.013116642 -0.0038970674 -0.0057628634 0.007812682 -0.012445084 -0.013899624 0.0019258858
-0.0010932467 -0.012487651 -0.0039823498 0.0149189755 -0.0064256815 0.0017899601 0.0043592076 -0.011204326
-0.008041397 -0.011359898 0.002250152 -0.0033744348 -0.00060916744 -0.002891013 -0.0064375633 -0.0056493594
0.017783834 -0.0045546275 -0.004035931 0.0046956902 -0.0020527833 -0.0103285145 -0.0020811383 -0.0050449483
-0.0009049435 0.01527706 -0.013207947 0.020794101 -0.0058552404 0.010019636 0.0130060855 -0.009172073
0.0127752265 -0.008442346 -0.0077219857 -0.0147262225 -0.008863237 0.0036557852 -0.00859432 0.015986484
0.005095607 -0.0051506003 -0.011595015 -0.0035439918 -0.016001409 0.0076670796 -0.013147821 -0.0008121076
0.0010470069 0.0067025768 -0.008680754 -0.007090362 0.005044029 0.0006090928 0.026819672 -0.017443288
-0.01664984 -0.0051343758 -0.008303029 0.0033154627 -0.0019533928 0.008196797 -0.003018075 0.0089480765
-0.007434452 -0.0137794465 0.027588708 -0.007821918 -0.0023151212 -0.004188946 0.011523635 -0.009467874
-0.007776653 -0.014378872 -0.0037914847 0.008082276 0.003381007 -0.011643543 -0.0023596396 -0.007309267
0.039175004 -0.0011453623 -0.01024102 0.010912729 0.006702255 -0.011441729 0.0031384206 -0.005010758
-0.009236012 0.00538866 -0.010730441 0.0030561853 0.000883696 0.010555227 -0.0024426538 -0.0020271742
00000000: 158b c6ba 645b 63b8 f8f7 70bb fb6d 9c3c
00000010: fb5b 20bc cddd 353b a330 8eba ad02 3cbc
00000020: 3df0 c8bb 0621 973c ba30 8fbb b413 23bc
00000030: e0e1 85bc cf30 943c 2edd 863b 7b16 b1bb
00000040: ed70 38bc a3ae 093d 3515 cbba 4326 89bc
00000050: d76d 8f3b 429d 613c 31ee 92bb 193f 19bc
00000060: 59ae 7b38 2fe7 563c f165 7fbb 67d6 bcbb
00000070: c300 003c 77e6 4bbc 40bb 63bc 016e fc3a
00000080: 464b 8fba 0199 4cbc 5f7e 82bb b86e 743c
00000090: 868e d2bb 189d ea3a afd7 8e3b 5992 37bc
000000a0: 10c0 03bc de1e 3abc 4977 133b 9f25 5dbb
000000b0: 89b0 1fba 2677 3dbb 32f2 d2bb 431e b9bb
000000c0: 67af 913c fc3e 95bb d83f 84bb 4ede 993b
000000d0: fd87 06bb ee38 29bc b563 08bb 1850 a5bb
000000e0: bb39 6dba a24c 7a3c 2566 58bc 6458 aa3c
000000f0: 51dd bfbb 6629 243c 7a17 553c 7646 16bc
00000100: 2f4f 513c c451 0abc b608 fdbb 4146 71bc
00000110: 1c37 11bc e695 6f3b 31cf 0cbc 16f6 823c
00000120: 0df9 a63b 5ec6 a8bb 05f9 3dbc 5142 68bb
00000130: 6315 83bc 203c fb3b f569 57bc 9ee3 54ba
00000140: b93b 893a 4aa1 db3b b939 0ebc 4456 e8bb
00000150: 6248 a53b 87ab 1f3a eeb4 db3c 3ae5 8ebc
00000160: 3f65 88bc 443e a8bb 6e09 08bc 3c48 593b
00000170: 7e04 00bb dc4b 063c e5ca 45bb f49a 123c
00000180: b49c f3bb 30c3 61bc b701 e23c 8127 00bc
00000190: 4ab9 17bb 6d43 89bb a1cd 3c3c 241f 1bbc
000001a0: 4bd3 febb 5c95 6bbc 8f7a 78bb 866b 043c
000001b0: e293 5d3b 8fc4 3ebc 2fa4 1abb 9382 efbb
000001c0: f875 203d fb1f 96ba f3c9 27bc 4ecb 323c
000001d0: 979e db3b 1776 3bbc f6ad 4d3b 4931 a4bb
000001e0: a452 17bc 5b93 b03b bbce 2fbc 484a 483b
000001f0: d6a7 673a d5ef 2c3c ee14 20bb 57da 04bb

action_model._continuous_distribution.log_sigma f4 [1, 2]
-0.013718572 -0.016887806
00000000: ddc3 60bc 4c58 8abc

action_model._continuous_distribution.mu.weight f4 [2, 128]
0.0038636993 -0.015868431 0.015278955 0.0007785908 0.015710533 -0.0063143023 0.004451001 0.016963761
0.007797433 -0.020377181 -0.029592706 0.010864038 0.0040439535 0.008129529 -0.008077656 0.034239832
-0.0046731518 0.007748636 0.022635248 -0.03700145 0.029428726 -0.00327099 0.020305028 -0.0022488737
-0.03329908 0.0076501677 0.0076173283 0.03591663 0.017756991 -0.016677584 0.004317199 -0.033855356
0.0073786164 0.0011399387 0.0044718985 -0.018974107 0.009143233 -0.004855787 -0.023231808 -0.00034476042
0.027177515 -0.010189801 0.028210921 0.014548461 0.012004217 0.012289112 0.027498206 0.009460151
0.014811812 -0.0020346416 0.019748852 0.0052515143 0.025081445 0.02410815 0.014297352 -0.020626513
0.015752878 0.0145138735 -0.0050018253 0.005906282 -0.0026204265 0.0025726103 0.0014457105 -0.025281355
0.0034809997 0.014655153 -0.00642801 -0.003704795 -0.0067454693 0.019739388 -0.015194294 -0.0038620767
0.029315557 0.03295533 -0.010887207 0.0005033663 0.020887874 0.0051033273 0.0068092523 0.017368814
0.01194786 0.006866926 0.015329613 0.004877436 0.0062492206 -0.003706916 0.016311498 0.001944561
-0.04007942 0.049270883 -0.005903781 -0.00774117 0.020112341 0.0023990795 0.033167906 0.020564754
-0.0025401711 -0.014314613 0.005880202 -0.0031909253 0.026391242 -0.014863622 0.0034406867 0.024037847
0.008916278 0.016657213 -1.6193062e-06 0.0239205 -0.034083456 0.0034685475 0.0090345815 0.015437585
0.0031116968 8.203955e-05 -0.0141889965 -0.03977312 0.045296814 0.029831946 -0.0047217445 0.0006648366
0.0185725 0.03015548 -0.013137461 -0.0042947726 -0.0438549 0.012637713 0.024381455 0.02498243
-0.027452657 0.014292624 -0.007057893 0.01624074 -0.020242685 -0.020526674 -0.015458213 -0.02351355
0.0071574682 0.029111067 0.0035382307 -0.02656538 -0.00924665 0.032507706 -0.031147916 -0.019120827
0.008099352 0.03133261 -0.015496146 -0.03294365 -0.00590424 0.020043025 -0.041159462 -0.03300449
0.012200869 0.017197127 -0.036188517 0.0011450751 -0.0058786073 0.002476799 -0.016182322 0.012305146
-0.0082761105 -0.015737902 -0.03568192 0.044438634 -0.008255313 0.020922806 -0.03550404 -0.019879429
0.007955381 -0.022410132 -0.008744338 -0.019770231 -0.014295558 -0.015743317 0.016450768 0.002608575
-0.028388822 -0.029649256 -0.0010953968 -0.03042696 -0.0032521477 -0.022953741 -0.045697935 0.0016946909
-0.026350927 -0.03837084 -0.0020552566 -0.030684687 0.012074916 -0.026237803 0.022347359 -0.036864042
0.022772375 -0.0076844934 -0.0052882778 -0.0048804064 -0.023965724 0.023678018 -0.032000374 0.0071309386
0.011845312 0.020993942 -0.009229137 -0.02529561 -0.017599199 0.018039078 -0.011190267 0.032141376
0.010720725 -0.023523103 -0.006374102 -0.014364426 -0.015878553 0.0037272887 -0.01665773 -0.005082971
-0.038647104 0.00068750954 -0.03304243 0.022652207 0.0015047184 0.0025962938 -0.03759801 0.007666434
0.0002348524 -0.012072275 0.035811365 -0.008089877 -0.015485855 0.0052487683 0.021261027 -0.028694145
-0.0036889212 -0.014653436 0.007277335 0.04165718 0.006756033 -0.0018347907 0.016529901 -0.01648696
0.022383342 0.012683862 -0.0027151753 0.023838846 0.014965866 -0.022563616 -0.02795682 0.0041091656
0.015379966 -0.02709395 -0.016096808 0.014811894 0.0022383018 0.024851022 -0.020046992 -0.026340855
00000000: 1e36 7d3b 83fe 81bc 9554 7a3c 581a 4c3a
00000010: 60b3 803c 35e8 cebb b4d9 913b 96f7 8a3c
00000020: 9c81 ff3b 0cee a6bc 676c f2bc 14ff 313c
00000030: 2483 843b b731 053c 2558 04bc 113f 0c3d
00000040: 3d21 99bb 45e8 fd3b 8e6d b93c d58e 17bd
00000050: 8314 f13c 1b5e 56bb bb56 a63c d761 13bb
00000060: 9e64 08bd 42ae fa3b c89a f93b 511d 133d
00000070: 1c77 913c 6e9f 88bc 4a77 8d3b eaab 0abd
00000080: 52c8 f13b ff69 953a 0189 923b 966f 9bbc
00000090: 80cd 153c 4b1d 9fbb a250 bebc f6c0 b4b9
000000a0: 61a3 de3c 20f3 26bc 971a e73c ab5c 6e3c
000000b0: 56ad 443c 4658 493c eb43 e13c c0fe 1a3c
000000c0: 3ead 723c 9f57 05bb 58c8 a13c e514 ac3b
000000d0: 9a77 cd3c 747e c53c 713f 6a3c eff8 a8bc
000000e0: 2e0c 813c 99cb 6d3c 5ae6 a3bb 7c89 c13b
000000f0: 76bb 2bbb 3d99 283b ff7d bd3a d81a cfbc
00000100: 7c21 643b 2b1c 703c 0ea2 d2bb 25cc 72bb
00000110: 1909 ddbb 7fb4 a13c 7df1 78bc e51a 7dbb
00000120: 2e27 f03c 2bfc 063d 4260 32bc 57f4 033a
00000130: 0c1d ab3c d039 a73b 2620 df3b 0b49 8e3c
00000140: f5c0 433c f303 e13b 0f29 7b3c e6d2 9f3b
00000150: 43c6 cc3b bbef 72bb b19f 853c a4e0 fe3a
00000160: 512a 24bd 44d0 493d 8174 c1bb a4a9 fdbb
00000170: a3c2 a43c e039 1d3b 12db 073d 6a77 a83c
00000180: 0079 26bb d787 6abc b6ae c03b d81e 51bb
00000190: 7232 d83c 8d86 73bc 257d 613b 05eb c43c
000001a0: 9515 123c b574 883c f056 d9b5 edf4 c33c
000001b0: 189b 0bbd 9250 633b c805 143c eded 7c3c
000001c0: 9ced 4b3b a60c ac38 f778 68bc 24e9 22bd
000001d0: 2789 393d 2062 f43c ddb8 9abb 6e48 2e3a
000001e0: 5b25 983c a008 f73c 813e 57bc 2abb 8cbb
000001f0: 32a1 33bd 690e 4f3c 9ebb c73c f4a7 cc3c
00000200: 65e4 e0bc 9c2b 6a3c e645 e7bb 4d0b 853c
00000210: fdd3 a5bc 8e27 a8bc 7244 7dbc 7d9f c0bc
00000220: 3289 ea3b 557a ee3c a9e1 673b a49f d9bc
00000230: 437f 17bc cd26 053d ea29 ffbc 48a3 9cbc
00000240: 25b3 043c 9f56 003d 8ce3 7dbc ecef 06bd
00000250: 5b78 c1bb 4531 a43c d396 28bd b72f 07bd
00000260: 27e6 473c fde0 8c3c 693a 14bd 5816 963a
00000270: 55a1 c0bb cb51 223b ca90 84bc 869b 493c
00000280: 8698 07bc c6ec 80bc 3427 12bd 4905 363d
00000290: 4b41 07bc 4e66 ab3c af6c 11bd 2fda a2bc
000002a0: 4957 023c 7495 b7bc 6944 0fbc 2ef5 a1bc
000002b0: eb37 6abc 21f8 80bc c3c3 863c a0f4 2a3b
000002c0: ad8f e8bc ffe2 f2bc 6b93 8fba f641 f9bc
000002d0: fc21 55bb 7c09 bcbc c22d 3bbd 6420 de3a
000002e0: e6dd d7bc be2a 1dbd 7cb1 06bb 745e fbbc
000002f0: ded5 453c a9f0 d6bc cf11 b73c c0fe 16bd
00000300: 228d ba3c 34ce fbbb 4a49 adbb d1eb 9fbb
00000310: c453 c4bc 67f8 c13c d312 03bd a6aa e93b
00000320: d712 423c 7dfb ab3c ce35 17bc bd38 cfbc
00000330: 322c 90bc b0c6 933c 6257 37bc ada6 033d
00000340: fba5 2f3c 86b3 c0bc d8dd d0bb c558 6bbc
00000350: bd13 82bc 8745 743b cb75 88bc 0d8f a6bb
00000360: 6d4c 1ebd fc39 343a 8057 07bd 1f91 b93c
00000370: f939 c53a 9526 2a3b 5f00 1abd b636 fb3b
00000380: b642 7639 cbca 45bc f0ae 123d 678b 04bc
00000390: 62b8 7dbc dcfd ab3b 9b2b ae3c fc0f ebbc
000003a0: d4c1 71bb f714 70bc b676 ee3b b8a0 2a3d
000003b0: b661 dd3b 5c7d f0ba b769 873c a90f 87bc
000003c0: 455d b73c f9cf 4f3c 15f1 31bb af49 c33c
000003d0: 6433 753c 55d7 b8bc b305 e5bc 2ea6 863b
000003e0: 41fc 7b3c 22f4 ddbc 74dd 83bc 96ad 723c
000003f0: 79b0 123b 5f94 cb3c 9739 a4bc c7c8 d7bc

action_model._continuous_distribution.mu.bias f4 [2]
0.0030949842 0.0067118723
00000000: 38d5 4a3b 44ef db3b
