mltest/ml-agents-release_19/config/ppo/results/autopilot/RollerBall/checkpoint.pt (torch, 444859 bytes, 36 tensors)

network_body._body_endoder.seq_layers.0.weight f4 [128, 8]
0.5006208 0.19064003 -0.06756624 -1.0344121 -0.43892366 0.052228384 -0.018628659 0.45257264
0.18869372 -0.51071393 0.0391196 0.8811992 0.24682172 0.0661349 -0.49923694 -0.09793274
0.48660138 -0.090686575 0.50126153 0.7741319 0.15225187 -0.23593357 -0.5522034 -0.13050653
-0.28527898 0.66044164 0.18090022 0.16506355 0.104775965 -0.3351343 0.58404523 0.3846139
0.038395893 0.36641884 0.17621672 -0.57427585 0.23417687 -0.5541026 -0.14844877 -0.16651961
0.22972804 -0.7591241 0.09823475 -0.21895313 0.26922166 0.10951199 1.003756 -0.116537794
-0.1542639 -0.19581872 0.0038120984 0.3259777 0.32244602 0.3923181 -0.22950257 -0.39394328
0.24321592 -0.19513556 0.31069586 -0.2516982 -0.19475955 -0.08711193 0.30270135 0.049413558
-0.06161944 0.36235774 0.25219318 -0.17043571 -0.062451657 0.06573828 0.66141397 0.35276547
0.41600162 0.77195317 -0.027275866 -0.21002881 0.06731217 -0.21420336 -0.073762 -0.4591701
-0.60711604 0.095979966 0.03213081 0.48916718 -0.16358687 0.13604186 0.0014917267 0.5374044
-0.22685319 0.0451225 -0.56472063 0.19053344 0.38928008 0.27176052 -0.07557621 -0.20586665
0.27882627 0.6485406 0.42930892 0.33871847 0.6068548 -0.1287708 -0.28345543 0.26976612
0.04967599 0.0027244329 0.5627354 0.3393514 -0.5020162 -0.036745183 -0.18326323 0.08388937
-0.1489287 -0.5354551 -0.11048684 -0.26521355 -0.088791355 -0.541822 0.058591135 -0.19188727
0.03577587 0.37105602 -0.30489537 -0.734648 -0.48768735 0.36851132 0.33105806 -0.10375399
0.57944447 0.24282798 0.25268185 -0.41807795 0.14786522 -0.27525762 -0.6514414 -0.15806258
0.1733732 0.4545234 0.261541 -0.15738057 0.15477009 -0.78736776 -0.012742522 -0.10134209
0.3719414 0.24285536 0.3782765 -0.41710263 0.38498753 -0.16522615 -0.2954199 -0.2061195
-0.38146996 -0.123325124 -0.19688706 0.37828833 -0.53774184 0.22836441 -0.28694698 -0.41274625
0.091018416 -0.72581714 -0.41799775 0.08072936 -0.50578386 0.6749252 -0.016044144 -0.553016
0.5252366 -0.087353654 0.5252867 -0.26971662 -0.14451468 0.4346168 -0.5034157 -0.45627242
0.10748356 -0.035119228 0.13626301 -0.23823372 -0.19325504 0.38293472 -0.19835868 -0.8254144
-0.08419277 0.35458496 -0.26522282 0.28224838 -0.12779711 -0.4325305 0.5377963 -0.14908679
0.7457281 -0.1948267 -0.6071931 -0.4254995 -0.043504737 0.60377544 0.092631735 0.059630785
-0.120023645 -0.06983711 0.17260884 -0.117300704 0.10460559 0.0101847565 0.014799231 -0.3107678
0.025123537 -0.063328765 0.0696125 0.8995349 0.62036777 0.31481472 -0.09573744 0.64752316
-0.036339317 0.026576215 0.2921605 -0.10335682 0.503352 -0.12563296 -0.1250246 0.2383278
-0.11822841 0.0800183 0.11123532 0.4935428 0.10655553 0.5088203 0.63110965 0.12744763
0.35761487 -0.1824893 -0.50497377 -0.22344118 0.061896577 0.054229464 0.56117535 -0.361701
0.27134842 -0.13114324 -0.22264414 -0.6183483 0.2960325 -0.3398577 0.0088874595 -0.55232245
-0.31070927 -0.4966928 -0.43979353 -0.75309914 0.14483163 0.6261288 -0.4949681 -0.07138531
00000000: af28 003f 2437 433e 2b60 8abd 9e67 84bf
00000010: 9aba e0be 6eed 553d 219b 98bc 9ab7 e73e
00000020: ed38 413e 26be 02bf e03b 203d 4596 613f
00000030: d5be 7c3e bc71 873d fc9b ffbe f690 c8bd
00000040: d123 f93e e2b9 b9bd ad52 003f 822d 463f
00000050: eae7 1b3e 9298 71be 345d 0dbf 81a3 05be
00000060: 1610 92be b412 293f e83d 393e 6b06 293e
00000070: c894 d63d b996 abbe fd83 153f 1dec c43e
00000080: 0345 1d3d 409b bb3e 2872 343e be03 13bf
00000090: 10cc 6f3e abd9 0dbf f402 18be 1e84 2abe
000000a0: d43d 6b3e f555 42bf 4d2f c93d 4035 60be
000000b0: 6cd7 893e d247 e03d 147b 803f 5eab eebd
000000c0: 5bf7 1dbe b484 48be 66d4 793b 8de6 a63e
000000d0: a517 a53e ebdd c83e b902 6bbe efb2 c9be
000000e0: 980d 793e 9ed1 47be 8713 9f3e 96de 80be
000000f0: 0c6f 47be bd67 b2bd acfb 9a3e df65 4a3d
00000100: aa64 7cbd f486 b93e 771f 813e b386 2ebe
00000110: 4fcd 7fbd cba1 863d 6d52 293f ad9d b43e
00000120: 2afe d43e b99e 453f a371 dfbc cb11 57be
00000130: f7da 893d 2058 5bbe 8810 97bd 5818 ebbe
00000140: f56b 1bbf 2591 c43d 999b 033d 1f74 fa3e
00000150: 5183 27be 8f4e 0b3e 0b86 c33a 5693 093f
00000160: 344c 68be 5fd2 383d 8891 10bf 331b 433e
00000170: b84f c73e 3224 8b3e b3c7 9abd b5ce 52be
00000180: 51c2 8e3e c206 263f 61ce db3e 826c ad3e
00000190: d65a 1b3f 7edc 03be 1221 91be c91e 8a3e
000001a0: 0d79 4b3d 668c 323b 6d0f 103f 77bf ad3e
000001b0: 2284 00bf 1e82 16bd 5ba9 3bbe 31ce ab3d
000001c0: c480 18be 9613 09bf ed46 e2bd 12ca 87be
000001d0: 3ed8 b5bd d9b4 0abf 42fd 6f3d 197e 44be
000001e0: b889 123d 0efb bd3e 3f1b 9cbe e411 3cbf
000001f0: 28b2 f9be 84ad bc3e 7180 a93e f97c d4bd
00000200: 7956 143f e6a7 783e 845f 813e 500e d6be
00000210: fb69 173e 91ee 8cbe ddc4 26bf 28db 21be
00000220: bf88 313e 4bb7 e83e b4e8 853e 5f28 21be
00000230: 0d7c 1e3e ef90 49bf 03c6 50bc 718c cfbd
00000240: 1a6f be3e 13af 783e 75ad c13e 7a8e d5be
00000250: 161d c53e 0b31 29be 4741 97be fd10 53be
00000260: 0850 c3be e291 fcbd c39c 49be 02af c13e
00000270: 73a9 09bf 5cd8 693e b7ea 92be 7a53 d3be
00000280: dd67 ba3d 27cf 39bf cd03 d6be 6f55 a53d
00000290: 0d7b 01bf e6c7 2c3f 026f 83bc 7592 0dbf
000002a0: e875 063f 79e6 b2bd 3079 063f 4c18 8abe
000002b0: a8fb 13be 1886 de3e dadf 00bf 8a9c e9be
000002c0: 5720 dc3d 2ed9 0fbd 8888 0b3e 8af3 73be
000002d0: a6e4 45be 0510 c43e 8a1e 4bbe 5c4e 53bf
000002e0: 426d acbd 298c b53e 49cb 87be dc82 903e
000002f0: 3fdd 02be a374 ddbe 05ad 093f 35aa 18be
00000300: 09e8 3e3f a780 47be 0271 1bbf 12db d9be
00000310: 0632 32bd 0791 1a3f b5b5 bd3d 693f 743d
00000320: f5ce f5bd c206 8fbd 5fc0 303e 5a3b f0bd
00000330: 753b d63d f7dd 263c 7978 723c f51c 9fbe
00000340: e0cf cd3c 83b2 81bd 0091 8e3d eb47 663f
00000350: 6cd0 1e3f 652f a13e fe11 c4bd 14c4 253f
00000360: 89d8 14bd 5db6 d93c 1096 953e beac d3bd
00000370: addb 003f eda5 00be 7306 00be 340c 743e
00000380: bd21 f2bd a2e0 a33d 58cf e33d a4b1 fc3e
00000390: c939 da3d 0c42 023f 6790 213f a281 023e
000003a0: 4c19 b73e 7ade 3abe f645 01bf c4cd 64be
000003b0: 4487 7d3d b71f 5e3d 30a9 0f3f e030 b9be
000003c0: 2eee 8a3e 6a4a 06be d3fc 63be 134c 1ebf
000003d0: 9291 973e d401 aebe b59c 113c 0165 0dbf
000003e0: 4915 9fbe 854e febe 9e2c e1be 1bcb 40bf
000003f0: be4e 143e fa49 203f 756c fdbe 7632 92bd

network_body._body_endoder.seq_layers.0.bias f4 [128]
0.014421215 -0.04946695 0.010288345 0.032989338 0.053727582 -0.046352588 -0.006332654 0.05679947
0.026667474 0.02359155 0.035369195 0.039463636 0.07089168 -0.0019095391 0.020746546 -0.008368825
0.10736596 0.08769587 0.096273296 -0.018435454 0.029517056 0.052587472 0.04000694 -0.06727646
0.045027256 -0.028499851 0.017922878 -0.018274182 -0.04630414 -0.017964575 0.0003044951 -0.08375522
0.03132377 -0.07639228 0.025210887 -0.0056984997 -0.001930354 -0.07562953 0.025496526 -0.13578896
-0.009159334 -0.027498413 0.019105889 -0.07174392 0.038941942 -0.03909465 -0.009035019 0.016901376
0.00080225203 0.03204866 0.010754905 0.10572491 -0.003811207 0.053245187 0.036302462 -0.012187295
-0.092126615 0.011526814 0.048997864 -0.032521818 -0.0011513177 -0.041473657 0.029271418 -0.053982306
0.00954191 0.0074534263 0.013974036 0.027771054 -0.014768187 -0.023248794 -0.056289352 -0.0449764
-0.00025724032 0.021391368 0.040630694 -0.013437605 0.012800153 -0.07099106 6.269027e-06 -0.0145235155
-0.005068629 -0.11682235 0.007129925 0.02877334 0.048199505 0.033270165 -0.023442836 0.031381216
0.03653841 0.057616953 -0.0027703843 0.066702455 0.04425532 -0.014327565 -0.05648969 -0.02912495
0.034421466 0.028915556 0.0060244394 -0.11077396 -0.032928925 0.005909735 0.029900512 0.021305963
-0.008192728 -0.034968037 0.019174142 0.025028946 -0.040891517 -0.027668303 0.026587917 0.03453533
-0.01053589 -0.06603299 -0.056200493 -0.033271965 -0.058962476 0.0490512 -0.06737216 -0.06214025
-0.039838426 -0.036818866 -0.059699345 0.005965283 0.03762501 0.07537454 -0.039177466 0.10232408
00000000: f646 6c3c db9d 4abd 7290 283c d41f 073d
00000010: 7411 5c3d 36dc 3dbd 2782 cfbb 90a6 683d
00000020: bf75 da3c 1143 c13c 4adf 103d 9fa4 213d
00000030: a82f 913d 8049 faba a9f4 a93c 651d 09bc
00000040: afe2 db3d e499 b33d ef2a c53d f305 97bc
00000050: c1cd f13c f665 573d 51de 233d 3ec8 89bd
00000060: 806e 383d 8578 e9bc 00d3 923c bdb3 95bc
00000070: 69a9 3dbd 722a 93bc a4a4 9f39 db87 abbd
00000080: 5a4d 003d 8e73 9cbd 1087 ce3c 7bba babb
00000090: ef03 fdba a8e3 9abd 17de d03c 430c 0bbe
000000a0: 0811 16bc 5a44 e1bc f483 9c3c 7aee 92bd
000000b0: 9681 1f3d b621 20bd 9e07 14bc c174 8a3c
000000c0: 394e 523a 7545 033d 5735 303c 4d86 d83d
000000d0: 71c5 79bb a017 5a3d e4b1 143d 38ad 47bc
000000e0: e1ac bcbd f6da 3c3c fcb1 483d 9935 05bd
000000f0: d0e7 96ba 48e0 29bd 9dca ef3c 8d1c 5dbd
00000100: ac55 1c3c df3b f43b 5bf3 643c 1f80 e33c
00000110: 44f6 71bc 4174 bebc aa8f 66bd 2c39 38bd
00000120: 36de 86b9 f33c af3c 5f6c 263d 6729 5cbc
00000130: bcb7 513c c363 91bd 885a d236 0af4 6dbc
00000140: be16 a6bb 8e40 efbd 25a2 e93b 11b6 eb3c
00000150: d86c 453d 4c46 083d 310b c0bc 9789 003d
00000160: 4da9 153d c1ff 6b3d 568f 35bb 4c9b 883d
00000170: 1145 353d 2abe 6abc bc61 67bd 7297 eebc
00000180: 86fd 0c3d 51e0 ec3c a968 c53b 75dd e2bd
00000190: 7be0 06bd 73a6 c13b ebf1 f43c d889 ae3c
000001a0: cb3a 06bc a53a 0fbd 1713 9d3c 8109 cd3c
000001b0: dd7d 27bd a3a8 e2bc e7ce d93c eb74 0d3d
000001c0: ba9e 2cbc 4e3c 87bd 7d32 66bd 2f48 08bd
000001d0: a382 71bd e9e9 483d 6afa 89bd c686 7ebd
000001e0: 9e2d 23bd 61cf 16bd 4d87 74bd 6c78 c33b
000001f0: af1c 1a3d f85d 9a3d 8d78 20bd 4a8f d13d

network_body._body_endoder.seq_layers.2.weight f4 [128, 128]
-0.09541925 0.18824391 0.07818348 0.21841313 -0.0052958513 0.19682322 0.13483806 0.030940859
0.048363503 0.02346993 0.021860518 -0.021285377 0.15607642 0.115192294 -0.15469113 0.014807792
-0.08804605 -0.00929767 -0.07741834 -0.0023336518 -0.057543956 0.0013738205 0.021450989 0.039654758
-0.06527561 -0.08489304 0.12896019 -0.08221687 0.11097431 -0.011656559 0.0007002293 -0.024279285
-0.027126744 0.22482775 -0.17718007 0.13809872 -0.16507396 -0.02280819 0.032791775 0.0031701473
-0.088398896 0.22816615 -0.049144335 -0.22567198 -0.039860442 0.09105114 -0.111570485 -0.08636655
0.06722011 0.09750893 -0.109351374 -0.029001359 0.009910562 0.011272204 -0.022185571 0.15459923
0.07289216 -0.029580792 -0.07967283 0.016633019 -0.09108306 -0.11729775 0.16748534 0.0011463589
-0.10828952 0.05362055 0.0087253405 -0.09461645 0.101395294 0.059049524 0.17439061 0.1536395
0.05829276 -0.10208674 -1.8677732e-05 -0.006991781 0.17216156 -0.021176666 0.015323171 -0.080387875
-0.102555074 -0.004715473 0.33379722 0.04483938 -0.14731158 0.19202808 0.11681899 0.12909389
-0.09414871 -0.18383849 0.03517728 -0.06668144 0.22295935 0.016868325 -0.014238828 0.08871319
-0.03355479 -0.04322694 -0.07179178 -0.1635056 -0.073955916 0.022534532 0.12516837 0.10979611
-0.030679736 0.10832277 -0.049323507 0.10253276 -0.09204509 0.0025259934 -0.037996035 0.05760565
0.02256005 0.0055676857 0.05612433 0.088571176 -0.05978069 0.032878675 0.016609048 -0.023498408
-0.004476204 -0.041853204 -0.13706681 -0.046497475 0.11727907 0.0038446467 0.023465803 -0.19992904
0.057618402 0.009436664 -0.027996523 0.18900493 -0.18376741 -0.034670707 0.09261204 -0.035023324
0.12007812 -0.095617995 0.053354267 0.16178556 -0.10220272 0.027271729 0.0994752 0.0049202866
0.019720478 -0.0934957 -0.06688522 0.06650715 0.020239534 0.0019491229 0.047069177 0.07396327
-0.011438259 0.0028191777 0.059873786 0.09550977 0.23525813 -0.08199164 -0.2149126 0.05554624
0.11109283 0.02872824 0.011452573 -0.13170446 -0.049410474 -0.070822746 0.08094326 -0.08011973
0.17400575 -0.122273885 -0.011106774 0.080169454 -0.073939055 -0.2891014 -0.13789488 -0.06454316
0.061045434 -0.03644133 0.16765465 0.071793586 0.08960229 0.13726507 -0.093305334 0.1155199
-0.24326399 0.007943697 -0.068023674 0.046912074 0.115009084 0.048416045 0.14257783 -0.13708267
-0.026397366 0.122534886 0.0015086279 -0.0052409526 0.014215389 0.026944486 -0.16656743 0.041784313
0.03413702 -0.064408 0.035794616 -0.15058652 -0.051771086 -0.17188399 0.113146275 0.034624085
-0.103255086 -0.11260941 0.10972092 0.01963591 -0.07246759 0.07803139 0.123632856 0.043221813
-0.12007112 -0.04488559 0.09549902 0.031424258 -0.095424056 -0.0487707 0.15204498 -0.12468057
-0.12370972 -0.074155346 -0.20735903 0.059440773 0.09451221 0.087426014 0.0189722 -0.09726307
0.062983274 -0.09850116 0.08455725 0.05609405 0.03911608 -0.026389897 0.059511926 0.043495256
0.011214387 -0.062743604 -0.08722476 0.029614445 -0.011649794 0.07308533 -0.023559494 -0.055900913
0.20690838 0.11748264 -0.054566626 -0.08264238 0.11121344 0.16639161 0.07554314 -0.06509139
00000000: 2b6b c3bd 03c3 403e a91e a03d b1a7 5f3e
00000010: d288 adbb 078c 493e fd12 0a3e af77 fd3c
00000020: cf18 463d 0344 c03c d414 b33c ac5e aebc
00000030: 7fd2 1f3e f0e9 eb3d 5a67 1ebe 629c 723c
00000040: 7d51 b4bd 4155 18bc 828d 9ebd 2ef0 18bb
00000050: 36b3 6bbd c411 b43a fcb9 af3c 076d 223d
00000060: 38af 85bd 67dc adbd 240e 043e 5161 a8bd
00000070: 8046 e33d 27fb 3ebc 988f 373a 5ae5 c6bc
00000080: e838 debc 3f39 663e b16e 35be c069 0d3e
00000090: 2609 29be 3ed8 babc ab50 063d 3fc2 4f3b
000000a0: 7b0a b5bd 63a4 693e 924b 49bd 8e16 67be
000000b0: b444 23bd 0579 ba3d 117f e4bd f2e0 b0bd
000000c0: b2aa 893d c3b2 c73d 9df3 dfbd 4294 edbc
000000d0: e95f 223c 0daf 383c 84be b5bc 434f 1e3e
000000e0: 7c48 953d 6b53 f2bc 822b a3bd f841 883c
000000f0: c189 babd ce39 f0bd 4781 2b3e 6c41 963a
00000100: e5c6 ddbd 39a1 5b3d bbf4 0e3c 45c6 c1bd
00000110: 56a8 cf3d eadd 713d 7493 323e ac53 1d3e
00000120: 64c4 6e3d da12 d1bd 20ae 9cb7 4f1b e5bb
00000130: 1f4b 303e b07a adbc 0a0e 7b3c 66a2 a4bd
00000140: 6508 d2bd 4184 9abb 78e7 aa3e 7fa9 373d
00000150: d9d8 16be 02a3 443e cb3e ef3d 3031 043e
00000160: 0ad1 c0bd 2840 3cbe 0d16 103d 4790 88bd
00000170: 754f 643e 712f 8a3c f949 69bc 43af b53d
00000180: bf70 09bd bb0e 31bd 9207 93bd 036e 27be
00000190: 3376 97bd 579a b83c 232c 003e c8dc e03d
000001a0: 1254 fbbc 54d8 dd3d 7207 4abd b2fc d13d
000001b0: 2382 bcbd 238b 253b bba1 1bbd e7f3 6b3d
000001c0: dbcf b83c 2271 b63b a0e2 653d ce64 b53d
000001d0: 99dc 74bd caab 063d b30f 883c bc7f c0bc
000001e0: 1fad 92bb 446e 2bbd 3e5b 0cbe 2374 3ebd
000001f0: 0230 f03d 78f6 7b3b 5b3b c03c 33ba 4cbe
00000200: 4601 6c3d 3d9c 1a3c f758 e5bc 828a 413e
00000210: 862d 3cbe df02 0ebd 62ab bd3d 9e74 0fbd
00000220: 84eb f53d 5ed3 c3bd 018a 5a3d 1dab 253e
00000230: a94f d1bd f668 df3c a7b9 cb3d 5b3a a13b
00000240: d78c a13c ac7a bfbd 1efb 88bd e734 883d
00000250: 61cd a53c b679 ff3a 9ccb 403d 0e7a 973d
00000260: 8967 3bbc f4c1 383b 373e 753d a09a c33d
00000270: 82e7 703e 3ceb a7bd 0c12 5cbe 7484 633d
00000280: a384 e33d 7c57 eb3c 93a3 3b3c 89dd 06be
00000290: a362 4abd 840b 91bd 94c5 a53d d015 a4bd
000002a0: 902e 323e bb6a fabd 30f9 35bc e22f a43d
000002b0: 5c6d 97bd 1905 94be 5134 0dbe 342f 84bd
000002c0: c70a 7a3d 8143 15bd a9ad 2b3e 8408 933d
000002d0: 6881 b73d 378f 0c3e de16 bfbd b395 ec3d
000002e0: 321a 79be 4826 023c ff4f 8bbd e026 403d
000002f0: e289 eb3d e74f 463d ecff 113e 665f 0cbe
00000300: 4a3f d8bc 92f3 fa3d 27bd c53a 4cbc abbb
00000310: aae7 683c afba dc3c a790 2abe 0726 2b3d
00000320: 43d3 0b3d 57e8 83bd 609d 123d 5a33 1abe
00000330: eb0d 54bd 5b02 30be 3cb9 e73d fcd1 0d3d
00000340: 6777 d3bd c39f e6bd 5db5 e03d 7ddb a03c
00000350: e369 94bd ecce 9f3d 3933 fd3d 5b09 313d
00000360: d9e7 f5bd f4d9 37bd fd94 c33d b9b6 003d
00000370: b06d c3bd c9c3 47bd aeb1 1b3e 8758 ffbd
00000380: 865b fdbd c2de 97bd ed55 54be 2b78 733d
00000390: 9e8f c13d 690c b33d 966b 9b3c dc31 c7bd
000003a0: 60fd 803d faba c9bd 5a2c ad3d e0c2 653d
000003b0: 2f38 203d a02f d8bc c7c2 733d 1528 323d
000003c0: 8cbc 373c b87f 80bd e5a2 b2bd fe99 f23c
000003d0: c7de 3ebc c3ad 953d d7ff c0bc 5bf8 64bd
000003e0: cadf 533e bd9a f03d 4181 5fbd 6840 a9bd
000003f0: dfc3 e33d 9062 2a3e 5db6 9a3d a24e 85bd

network_body._body_endoder.seq_layers.2.bias f4 [128]
0.09309321 0.008549073 0.028190393 0.015856918 0.022106683 -0.0036467172 -0.004069105 -0.029333549
0.042875227 -0.021194723 0.03374841 -0.020524973 -0.024365218 -0.0074404683 -0.0013432257 -0.01323525
0.010469057 0.032836754 0.008476979 -0.0030413105 0.041890983 0.037266508 -0.02584884 0.041572545
0.079968855 -0.024130918 0.009740566 0.025490021 -0.044484697 -0.01591327 0.03974292 0.01362802
0.056593902 0.003544066 -0.10100655 0.0028307016 0.061987296 0.017444605 0.046528984 0.005401217
-0.0076284804 0.040554695 -0.028550433 0.025900804 0.061139405 -0.06624165 0.0053100735 -0.02759657
0.017153298 0.04728898 0.05311937 0.009084642 0.023460533 -0.060951997 0.0049422095 0.014278395
0.009575422 -0.015225247 -0.01708228 0.00869586 0.03781792 0.0017585732 0.02924814 0.025421308
0.04080521 -0.012108356 0.03893728 0.021337816 -0.019953765 -0.06467794 -0.004478492 -0.027011625
0.0013201616 0.060514726 -0.03961645 -0.004519582 0.045956817 -0.0030302042 0.051386572 0.020636749
-0.016801938 0.025314262 -0.004073121 0.045062527 0.017391866 -0.022821067 -0.013618387 0.028236391
0.03265474 -0.047947887 0.02691053 -0.05202857 0.028016008 -0.01032008 0.012286384 0.015736531
-0.0433494 -0.010351019 0.04341202 -0.01933222 0.04920737 0.04008004 -0.03792592 -0.024654541
0.058701027 0.03165636 0.054829944 0.027085658 0.051305614 -0.017306035 0.000684455 -0.006206403
0.07132221 0.072767355 0.04053058 0.007474954 -0.02024419 9.639745e-05 -0.026846552 0.043015346
-0.009721358 0.062089477 -0.02532143 -0.0048537315 0.016765453 0.092366286 0.036660273 -0.067232475
00000000: a7a7 be3d 6911 0c3c 8aef e63c 5ee6 813c
00000010: 1319 b53c c3fd 6ebb 2056 85bb e94c f0bc
00000020: ef9d 2f3d 8ea0 adbc c63b 0a3d fd23 a8bc
00000030: 9199 c7bc 2ccf f3bb 2d0f b0ba a9d8 58bc
00000040: 6886 2b3c d57f 063d 07e3 0a3c b950 47bb
00000050: e195 2b3d c4a4 183d f2c0 d3bc f947 2a3d
00000060: b6c6 a33d 34ae c5bc e596 1f3c 73d0 d03c
00000070: 9635 36bd 8c5c 82bc 79c9 223d 0f48 5f3c
00000080: 02cf 673d 9043 683b 86dc cebd 4b83 393b
00000090: 64e6 7d3d fde7 8e3c 2d95 3e3d b1fc b03b
000000a0: 55f8 f9bb ae1c 263d 99e2 e9bc ec2d d43c
000000b0: 506d 7a3d b4a9 87bd 2000 ae3b 3412 e2bc
000000c0: 1385 8c3c 17b2 413d b293 593d c0d7 143c
000000d0: 4e30 c03c cda8 79bd 42f2 a13b eeef 693c
000000e0: 3be2 1c3c 5073 79bc 23f0 8bbc 1579 0e3c
000000f0: f7e6 1a3d ed7f e63a cc99 ef3c 5940 d03c
00000100: 5d23 273d 2062 46bc b37c 1f3d a5cc ae3c
00000110: 1476 a3bc de75 84bd 50c0 92bb 7c47 ddbc
00000120: 4609 ad3a 4ade 773d dc44 22bd 0019 94bb
00000130: 373d 3c3d 6496 46bb ba7a 523d 660e a93c
00000140: 38a4 89bc db5f cf3c d177 85bb 7c93 383d
00000150: 6379 8e3c 3ff3 babc a81f 5fbc 0150 e73c
00000160: fac0 053d 0165 44bd 7973 dc3c e91b 55bd
00000170: d481 e53c 8e15 29bc d44c 493c e6e9 803c
00000180: 248f 31bd 5297 29bc cdd0 313d 9b5e 9ebc
00000190: ab8d 493d f82a 243d 3658 1bbd 52f8 c9bc
000001a0: 7d70 703d 19aa 013d 5d95 603d bee2 dd3c
000001b0: d625 523d 63c5 8dbc ff6c 333a 155f cbbb
000001c0: 6111 923d 0d07 953d 6503 263d 75f0 f43b
000001d0: 25d7 a5bc fd28 ca38 4ded dbbc dc30 303d
000001e0: 5546 1fbc 8951 7e3d e36e cfbc 0d0c 9fbb
000001f0: b457 893c 892a bd3d 1529 163d 2eb1 89bd

action_model._continuous_distribution.log_sigma f4 [1, 2]
-0.09026272 -0.018205164
00000000: a9db b8bd ff22 95bc

action_model._continuous_distribution.mu.weight f4 [2, 128]
-0.086767025 -0.030860774 -0.0319664 0.02003203 0.052741 -0.029152403 -0.05535389 -0.051194508
-0.0684855 -0.06479061 -0.09217026 0.013707571 -0.012934764 0.009805418 0.0034983763 -0.021673424
0.06986615 -0.011159291 -0.035082504 0.044059824 0.02977008 0.044351455 -0.014134347 0.046623792
0.023507267 -0.042522755 0.03606617 -0.0658427 -0.014311308 -0.005391524 -0.04536797 -0.008849855
0.05246722 -0.09701649 -0.020965004 0.0048542097 0.010077703 -0.011776079 0.04108383 -0.030981213
0.058606964 -0.009502075 -0.01170799 0.049738668 0.022126293 0.006990392 0.008881586 -0.0013656707
0.04632267 0.03307659 0.08189835 -0.017587876 0.016876673 -0.02475263 -0.055447023 -0.010449905
-0.004206505 0.012234096 -0.059118085 0.013841772 0.0342667 -0.044090647 0.04662189 0.02347826
-0.10086166 0.06786913 0.015746377 0.050007164 -0.02032066 -0.027721489 -0.042359952 -0.01584241
0.016704943 -0.04205638 0.017312225 0.03180721 0.01148073 -0.042697303 -0.0954043 -0.05528692
0.01451838 0.014004021 -0.019062402 0.058577877 -0.014578888 0.042264506 0.015156603 -0.044884186
-0.025217913 -0.08480018 0.05443286 -0.033531368 -0.0043895715 -0.06991723 0.020889053 -0.046231877
-0.008723095 0.036261152 -0.07884714 0.039890133 0.03645771 0.006949754 -0.027178317 -0.011303708
-0.056868445 0.059765983 0.01394761 -0.05032789 0.04985074 0.006761424 0.029810235 0.021998389
0.00046923562 -0.10162129 0.014017683 -0.04948372 -0.044074457 0.029685618 -0.016436635 0.12811701
0.021216087 0.038931176 0.0049544214 -0.031141592 0.0077974205 0.04038341 0.03279451 -0.02280119
-0.03419724 -0.049636208 0.020773796 0.05790462 0.011091643 -0.0100012785 -0.033714842 -0.0035302178
-0.010450263 0.019942435 0.012013196 -0.06170729 -0.027405124 -0.07107649 -0.0797815 -0.0066511636
0.001569702 -0.043560974 0.020829393 -0.0294251 0.062356696 -0.08499963 0.009411329 0.03031969
0.053738818 0.0071914685 -0.02530329 -0.00543176 0.031406723 -0.016045153 -0.06892652 -0.047979176
0.10388045 0.002040374 -0.018680625 -0.04678684 0.08979402 -0.034576867 -0.05934598 -0.04068796
0.0064650364 -0.07180809 -0.033828393 0.089184396 -0.09052187 -0.0077683604 -0.032035753 0.030403093
-0.00920364 0.07716094 -0.050812125 -0.014292729 0.04437005 -0.00019744852 -0.0061338004 -0.05340058
0.032355536 0.0443897 0.012043634 0.022104437 -0.05184111 -0.004625311 0.024164103 0.014457962
-0.013780332 -0.0762512 -0.047862165 -0.052148405 -0.03715968 0.030055812 0.011088801 -0.03521446
0.050628666 0.05700334 0.0114883045 0.033498853 0.060860585 -0.05216428 -0.040883344 0.05578496
-0.06032124 -0.0264744 0.050899863 0.017585665 0.009837236 0.0012606996 -0.026555756 0.039344247
0.037425514 0.049522657 0.028604928 -0.05635482 0.04773907 0.004511949 0.064973235 -0.03202471
0.015372918 -0.014637727 -0.08101248 -0.021019612 0.03878411 0.07009104 0.0014057753 -0.030763162
0.049334887 0.002658351 -0.0748555 0.024348242 -0.08542352 -0.05810547 0.006552621 -0.054277863
0.086272806 0.018160103 -0.068219095 0.013839744 0.023207542 0.00789024 0.01525483 0.018345296
0.019400662 0.06782674 0.037788976 -0.027682144 -0.056651995 0.0823498 0.026175734 -0.034214325
00000000: e9b2 b1bd bccf fcbc 33ef 02bd 361a a43c
00000010: f206 583d 05d1 eebc c3ba 62bd 55b1 51bd
00000020: 2042 8cbd f0b0 84bd c3c3 bcbd b895 603c
00000030: 55ec 53bc e7a6 203c 0445 653b 778c b1bc
00000040: fc15 8f3d 75d5 36bc acb2 0fbd 1378 343d
00000050: 62e0 f33c dfa9 353d c093 67bc 97f8 3e3d
00000060: 5092 c03c 572c 2ebd 1fba 133d 8ad8 86bd
00000070: fa79 6abc 62ab b0bb c4d3 39bd fbfe 10bc
00000080: dee7 563d 95b0 c6bd cdbe abbc 1010 9f3b
00000090: f31c 253c 75f0 40bc 8547 283d 50cc fdbc
000000a0: db0d 703d 97ae 1bbc dfd2 3fbc c6ba 4b3d
000000b0: 3342 b53c a90f e53b 1284 113c 4e00 b3ba
000000c0: d7bc 3d3d 527b 073d 52ba a73d 7314 90bc
000000d0: f340 8a3c 07c6 cabc 6b1c 63bd 1436 2bbc
000000e0: b9d6 89bb 8571 483c ce25 72bd 9ac8 623c
000000f0: 3d5b 0c3d 6598 34bd 98f6 3e3d 7b55 c03c
00000100: 8f90 cebd f8fe 8a3d 8cfe 803c 50d4 4c3d
00000110: 8377 a6bc 2d18 e3bc a181 2dbd f1c7 81bc
00000120: ced8 883c 5043 2cbd 5ed2 8d3c 4748 023d
00000130: ac19 3c3c 5ee3 2ebd 5463 c3bd 8a74 62bd
00000140: 80de 6d3c 1f71 653c c128 9cbc 5bef 6f3d
00000150: 4adc 6ebc 8c1d 2d3d 6753 783c 7bd8 37bd
00000160: cc95 cebc b7ab adbd fef4 5e3d 3058 09bd
00000170: 65d6 8fbb c430 8fbd 851f ab3c a35d 3dbd
00000180: 50eb 0ebc 9386 143d 9c7a a1bd d663 233d
00000190: ae54 153d c3ba e33b 10a5 debc 3033 39bc
000001a0: e3ee 68bd 2dcd 743d 8484 643c 9e24 4ebd
000001b0: 4a30 4c3d ef8e dd3b 9834 f43c f735 b43c
000001c0: bd03 f639 d31e d0bd 6daa 653c 71af 4abd
000001d0: 6b87 34bd 412f f33c 1fa6 86bc 1b31 033e
000001e0: 5ccd ad3c 4c76 1f3d b358 a23b a71c ffbc
000001f0: 8181 ff3b 1369 253d 8953 063d 90c9 babc
00000200: 6812 0cbd 564f 4bbd cf2d aa3c 652d 6d3d
00000210: b9b9 353c 67dc 23bc 9318 0abd 3a5b 67bb
00000220: 9437 2bbc 515e a33c ffd2 443c c9c0 7cbd
00000230: b680 e0bc 8d90 91bd 7c64 a3bd 01f2 d9bb
00000240: 76be cd3a fe6c 32bd 67a2 aa3c e80c f1bc
00000250: bc69 7f3d 4914 aebd fa31 1a3c 0061 f83c
00000260: 3c1d 5c3d 69a6 eb3b d848 cfbc e8fc b1bb
00000270: 56a4 003d 2071 83bc 5929 8dbd d085 44bd
00000280: 46bf d43d ccb7 053b 1c08 99bc 8fa3 3fbd
00000290: ede5 b73d 79a0 0dbd c514 73bd 6ba8 26bd
000002a0: a8d8 d33b 1f10 93bd a48f 0abd 4fa6 b63d
000002b0: 8863 b9bd bb8d febb ec37 03bd e80f f93c
000002c0: ddca 16bc 8e06 9e3d 6020 50bd 0d2c 6abc
000002d0: 5fbd 353d 2f0a 4fb9 0cfe c8bb 91ba 5abd
000002e0: 3d87 043d f9d1 353d aa52 453c 5d14 b53c
000002f0: 5857 54bd ec8f 97bb ccf3 c53c 16e1 6c3c
00000300: e7c6 61bc 9729 9cbd 1e0b 44bd 9199 55bd
00000310: c034 18bd 9b37 f63c cdad 353c 0a3d 10bd
00000320: 0160 4f3d 567c 693d 7139 3c3c 1836 093d
00000330: f348 793d 36aa 55bd 4b75 27bd c57e 643d
00000340: 6813 77bd d7e0 d8bc 607c 503d d00f 903c
00000350: 5c2c 213c 0f3e a53a 758b d9bc 6f27 213d
00000360: 7f4b 193d 45d8 4a3d e254 ea3c 50d4 66bd
00000370: 0b8a 433d f9d8 933b b010 853d 582c 03bd
00000380: b1de 7b3c 14d3 6fbc dfe9 a5bd 5231 acbc
00000390: 16dc 1e3d e48b 8f3d fe41 b83a 0703 fcbc
000003a0: 6113 4a3d bb37 2e3b d74d 99bd f775 c73c
000003b0: 87f2 aebd 0000 6ebd 5eb7 d63b 7752 5ebd
000003c0: ccaf b03d 7fc4 943c 74b6 8bbd 18c0 623c
000003d0: be1d be3c 1146 013c 65ef 793c e048 963c
000003e0: 23ee 9e3c bfe8 8a3d 9dc8 1a3d aac5 e2bc
000003f0: ec0b 68bd 03a7 a83d 7e6e d63c 5224 0cbd

action_model._continuous_distribution.mu.bias f4 [2]
0.0017620733 0.014382278
00000000: 5ef5 e63a a5a3 6b3c

exp_avg f4 [128, 8]
0.00079594005 0.0016588712 -0.008405289 -0.0026192912 0.0016528894 -0.007757389 0.0023209497 0.0054325643
-0.003187389 -1.1013645e-05 -0.004316475 -0.0036724245 -1.0256364e-05 -0.0035748482 8.666789e-05 0.00045566697
-0.022778941 -0.0019517728 0.007479823 -0.006833534 -0.0019285071 -0.0054408703 -0.001704375 -0.008945893
0.008700259 -0.00025777266 0.00046630861 0.008311177 -0.00029462157 -0.00017149578 0.0032571235 -0.0062090927
0.0017387108 -0.00084390986 0.023664359 -0.003303142 -0.0008453811 0.014853826 0.004066993 0.004179921
-0.004276896 -0.00024153067 -0.004802635 -0.0019340068 -0.00027096667 -0.008996584 -0.00027675283 -0.0004942376
-0.008430276 0.00044965584 -0.0066946214 -0.0034904361 0.00030348185 -0.008536493 -0.0032846045 0.00052910286
-0.012676456 -0.00071615557 0.019370236 0.005769473 -0.0007741091 -0.005963901 0.017419431 -0.0047930414
-0.007966492 -0.0005055159 0.0035638395 -0.0031138274 -0.000489198 -0.010379053 0.009083547 -0.0075475713
0.00805513 -0.0009511086 0.03083427 0.004691923 -0.0009651832 0.024414029 0.0012889069 0.006779446
0.0076279305 -6.59868e-05 -0.0020600634 0.003975346 -0.00031996408 0.0150612965 -0.015934527 9.1718e-05
-0.003748501 0.0014763974 -0.019532539 0.00020025834 0.0014869664 -0.01293603 -0.002723964 -0.006322264
-0.008865801 -0.00035124423 0.012296465 -0.0020764305 -0.00034791007 -0.0022224076 0.0077550923 0.0025218162
-0.0040461486 0.00035914828 0.00397463 0.004436261 0.00034207653 -0.012709443 0.008037905 0.002006094
-0.0014400963 -0.0004938537 0.010253526 -0.0064085666 -0.0004935399 0.0070335497 -0.0012271076 0.005700783
-0.002524962 5.4367047e-05 0.0010614746 -0.004080053 5.433637e-05 -0.0025274039 -0.00035324288 0.0041546966
0.006969964 -0.0005226115 0.008012037 0.0051561045 -0.0003297632 0.007843877 0.0054740184 -0.0007994708
0.009968785 0.00026204338 0.046985365 0.009852312 0.0001721983 0.01621887 0.030631818 0.022351902
0.00019528427 -0.0005188821 0.009968382 0.0058266334 -0.0003252466 0.0024740037 0.0064765215 -0.010299128
-0.0054409867 -0.00031069966 -0.006943213 -0.005684684 -0.0003102431 -0.007585995 -8.572263e-05 0.00069134514
-0.0052866745 0.00019114048 -0.006220547 -0.0032455141 0.00019360168 -0.0037534279 -0.00010389573 -0.00093863055
-0.0023363077 -6.532119e-05 -0.0021933755 0.001439057 6.552627e-05 -0.0020072127 -0.0017100276 -0.0081772255
0.01031424 -4.046377e-05 0.008047656 0.006757197 -4.1137042e-05 0.006410103 0.0030442846 0.00444745
-0.0016807532 5.2875403e-05 -0.010829815 -0.00042003242 8.373924e-05 -0.003490725 -0.008082159 -0.011397113
0.018754177 0.0012129338 0.008225541 0.0043257764 0.0012167892 0.0075931223 0.005542409 0.014901887
0.0076267975 0.000372714 0.007429831 0.005129611 0.00036427725 0.0025376903 0.0035859302 0.0016531127
0.012507695 0.0002581757 -0.012551869 0.00070340984 8.3331855e-05 0.0036074747 -0.013821107 0.00020883513
-0.0029924035 -0.00022044458 0.001973024 0.00039140123 -0.00018493689 -0.0038593025 0.0033932843 -0.002337838
0.0027080714 8.1003294e-05 -0.0013336362 0.0013939961 8.1454375e-05 -2.6102876e-05 0.0013226374 -0.000634127
0.0043465383 0.00013661133 -0.0037394608 -0.00012494116 0.00013644564 -0.0025490383 -0.0034331288 0.007668319
0.0022056329 -0.0008593925 0.010507707 -0.003016089 -0.0008593997 0.009453019 -0.0017243774 0.0035315026
-0.000339769 0.00022438333 -0.0027226505 -0.0018937419 0.00022429206 -0.004233156 0.003871115 0.0057804557
00000000: a2a6 503a 7b6e d93a 56b6 09bc 6aa8 2bbb
00000010: c4a5 d83a b231 febb 131b 183b a703 b23b
00000020: 84e3 50bb 3fc7 38b7 3771 8dbb 0fad 70bb
00000030: bf12 2cb7 0048 6abb 78c1 b538 96e6 ee39
00000040: e79a babc a1d2 ffba 4e19 f53b d7eb dfbb
00000050: f6c5 fcba 5449 b2bb 5665 dfba cb91 12bc
00000060: 888b 0e3c a925 87b9 e27a f439 9a2b 083c
00000070: 7077 9ab9 8cd3 33b9 7775 553b a575 cbbb
00000080: 74e5 e33a d539 5dba c2db c13c 8779 58bb
00000090: 919c 5dba 765d 733c 6944 853b b8f7 883b
000000a0: 3425 8cbb 6543 7db9 6c5f 9dbb 807e fdba
000000b0: 8810 8eb9 6966 13bc 2319 91b9 b98f 01ba
000000c0: 241f 0abc c9bf eb39 8e5e dbbb cdbf 64bb
000000d0: a51c 9f39 a6dc 0bbc 8542 57bb 7eb3 0a3a
000000e0: e9b0 4fbc 63bc 3bba 54ae 9e3c d90d bd3b
000000f0: 95ed 4aba d46c c3bb 32b3 8e3c f20e 9dbb
00000100: e485 02bc 9984 04ba 4e8f 693b 5b11 4cbb
00000110: 863d 00ba e70c 2abc 28d3 143c 9e51 f7bb
00000120: aaf9 033c d153 79ba 2798 fc3c b4be 993b
00000130: 5904 7dba eeff c73c 8af0 a83a 1d26 de3b
00000140: b8f3 f93b 6562 8ab8 2102 07bb 9f43 823b
00000150: dac0 a7b9 a8c3 763c 2089 82bc ba58 c038
00000160: 69a9 75bb ad83 c13a b402 a0bc 70fc 5139
00000170: 50e6 c23a a4f1 53bc 8884 32bb ff2a cfbb
00000180: dd41 11bc 3427 b8b9 1d77 493c b914 08bb
00000190: b367 b6b9 d0a5 11bb 6e1e fe3b 0e45 253b
000001a0: 8e95 84bb 114c bc39 9d3d 823b 0e5e 913b
000001b0: bc58 b339 453b 50bc 6bb1 033c ac78 033b
000001c0: 9dc1 bcba f675 01ba 68fe 273c f4fe d1bb
000001d0: e760 01ba b179 e63b e6d6 a0ba a2cd ba3b
000001e0: d579 25bb 2c08 6438 2d21 8b3a f7b1 85bb
000001f0: 3ce7 6338 cda2 25bb 7533 b9b9 1f24 883b
00000200: 4c64 e43b ddff 08ba eb44 033c 8af4 a83b
00000210: 11e4 acb9 9b83 003c 655f b33b 9493 51ba
00000220: 1d54 233c de62 8939 ba73 403d 976b 213c
00000230: 2190 3439 70dd 843c 94ef fa3c 561b b73c
00000240: 39c5 4c39 9705 08ba 6d52 233c 58ed be3b
00000250: dc85 aab9 e522 223b 0039 d43b acbd 28bc
00000260: 4e4a b2bb 67e5 a2b9 e483 e3bb 9646 babb
00000270: 20a8 a2b9 f093 f8bb fdc5 b3b8 633b 353a
00000280: d73b adbb e26c 4839 bbd5 cbbb b1b2 54bb
00000290: 8e01 4b39 12fc 75bb 98e2 d9b8 6e0e 76ba
000002a0: bd1c 19bb 0cfd 88b8 bcbe 0fbb be9e bc3a
000002b0: 266b 8938 718b 03bb 0123 e0ba c5f9 05bc
000002c0: 0ffd 283c a4b7 29b8 51da 033c 7a6b dd3b
000002d0: 908a 2cb8 d70b d23b 9f82 473b eabb 913b
000002e0: b84c dcba 88c6 5d38 896f 31bc cc37 dcb9
000002f0: 2a9d af38 a6c4 64bb 086b 04bc f5ba 3abc
00000300: 5ca2 993c 4efb 9e3a 6bc4 063c 3ebf 8d3b
00000310: ac7c 9f3a bacf f83b 199d b53b 0b27 743c
00000320: 37ea f93b d468 c339 f175 f33b 4c16 a83b
00000330: 77fc be39 614f 263b ed01 6b3b 42ad d83a
00000340: 13ed 4c3c c25b 8739 5ba6 4dbc 0965 383a
00000350: 73c2 ae38 626b 6c3b ed71 62bc c1fa 5a39
00000360: 331c 44bb 2427 67b9 da4d 013b fc34 cd39
00000370: 9eeb 41b9 5aec 7cbb dd61 5e3b 6a36 19bb
00000380: e679 313b 50e0 a938 68cd aeba bfb6 b63a
00000390: 7cd2 aa38 80f7 dab7 595c ad3a 8b3b 26ba
000003a0: 686d 8e3b 533f 0f39 be11 75bb a302 03b9
000003b0: d912 0f39 c40d 27bb 58fe 60bb 8646 fb3b
000003c0: 618c 103b db48 61ba 8428 2c3c 94a9 45bb
000003d0: 5649 61ba d6e0 1a3c 8104 e2ba c870 673b
000003e0: 0623 b2b9 7148 6b39 7f6e 32bb 6f37 f8ba
000003f0: f12f 6b39 49b6 8abb 88b2 7d3b fa69 bd3b

exp_avg_sq f4 [128, 8]
0.0037463168 2.5566218e-05 0.002286703 0.0022427428 2.5376381e-05 0.0018385011 0.0046260958 0.002409397
0.00029370765 2.6099447e-06 0.00027251785 0.0004317802 2.460272e-06 0.00022106127 0.00041082967 0.0002568102
0.0042925845 3.5967474e-05 0.0030739063 0.0069681047 3.346577e-05 0.0026944294 0.0057902546 0.0041849837
0.002588149 2.1868052e-05 0.0019563462 0.0027435715 2.1201151e-05 0.001782232 0.005596274 0.0024584325
0.0040274295 3.0974956e-05 0.0027594627 0.0030095838 3.0709598e-05 0.0022997973 0.0043833074 0.002596472
0.0008451384 7.4021928e-06 0.0006589144 0.0011977801 7.096453e-06 0.00066935254 0.0019365378 0.0008081707
0.0005246434 4.9334703e-06 0.0005599396 0.00078398327 4.723903e-06 0.0004502284 0.00055028516 0.0005179405
0.011844984 7.981928e-05 0.0069859237 0.008123095 7.88526e-05 0.005744262 0.026773175 0.010287069
0.0032138631 2.2349292e-05 0.0020256012 0.0025958244 2.1859245e-05 0.0017631282 0.0052809827 0.0024629831
0.0068469713 5.812269e-05 0.0054726833 0.0074925073 5.6421894e-05 0.004101713 0.014369879 0.00621862
0.004679138 3.8402166e-05 0.0034188624 0.005075907 3.7270464e-05 0.0029403174 0.005461629 0.0047859824
0.008432536 6.407919e-05 0.0068779057 0.007913183 6.227718e-05 0.004613313 0.010554736 0.006570535
0.0016888791 1.4591115e-05 0.0011133506 0.0020620492 1.4171729e-05 0.0012680806 0.0036696636 0.0014480941
0.0011597899 9.328733e-06 0.00087600003 0.0015454746 8.913709e-06 0.000861801 0.0024875805 0.0014026362
0.0012604081 1.1640388e-05 0.0011923618 0.0014109501 1.1333131e-05 0.0011252881 0.0023083168 0.0012004196
0.0030130367 2.0197258e-05 0.0020215353 0.0015745761 2.0078116e-05 0.0013580093 0.0050529735 0.0020702633
0.0010239861 9.849883e-06 0.0009530004 0.0009855181 9.536856e-06 0.00075344334 0.0014728962 0.0010817733
0.008022186 6.6166125e-05 0.0056580743 0.007897021 6.43396e-05 0.005000509 0.014401598 0.0060322615
0.0018682308 1.6452732e-05 0.0016231257 0.0017827073 1.6034028e-05 0.001381149 0.0025092994 0.0019214486
0.0004400307 3.4010227e-06 0.00036274627 0.00058027986 3.2154885e-06 0.00038004486 0.00044138756 0.0002979218
0.00046619438 3.4764234e-06 0.00035876542 0.0004482492 3.3792867e-06 0.00037580967 0.0008466716 0.0003519112
0.0006081605 5.311143e-06 0.000516965 0.00078001496 5.011255e-06 0.0005738407 0.0006509832 0.0005570684
0.0004982052 4.272448e-06 0.00042997667 0.00063014636 3.9375273e-06 0.0003539646 0.0005199966 0.0005267033
0.0011255454 9.421194e-06 0.0008407793 0.00111347 9.183272e-06 0.00067773147 0.0023135962 0.0010131291
0.00442235 3.0149566e-05 0.0029285594 0.0026115682 2.985269e-05 0.00199443 0.008018678 0.0034999496
0.001456187 1.3898845e-05 0.0013472422 0.0015056656 1.368878e-05 0.0008128336 0.0024691185 0.0023218573
0.005242186 4.9360355e-05 0.0040857126 0.007386427 4.816782e-05 0.0038654176 0.012897624 0.005474201
0.0003720838 2.639006e-06 0.00025126862 0.0003044291 2.5708002e-06 0.00020312313 0.0005498891 0.0004295382
0.0006421258 5.776228e-06 0.0006080623 0.0007412964 5.678805e-06 0.00043507616 0.0019316195 0.0006441994
0.0037845785 3.089516e-05 0.0034875148 0.0028923291 3.0452342e-05 0.0020308932 0.007166024 0.0034407107
0.0025317492 1.8997976e-05 0.0018004006 0.0018624522 1.8627265e-05 0.0012169069 0.0047921007 0.0014616945
0.0019282161 1.2249938e-05 0.0014270195 0.0011117742 1.2155247e-05 0.0011196103 0.0010995177 0.0007715062
00000000: c484 753b 0977 d637 83dc 153b fbfa 123b
00000010: 5ddf d437 dcf9 f03a 8196 973b f9e6 1d3b
00000020: c6fc 9939 8226 2f36 bae0 8e39 8f60 e239
00000030: 271b 2536 afcc 6739 a064 d739 7ba4 8639
00000040: cfa8 8c3b c8db 1638 9773 493b b354 e43b
00000050: 995d 0c38 0695 303b 2dbc bd3b 3022 893b
00000060: ef9d 293b 4971 b737 0b36 003b 7ecd 333b
00000070: 20d9 b137 c899 e93a f360 b73b a71d 213b
00000080: 87f8 833b 1beb 0138 1ad8 343b 703c 453b
00000090: 2ece 0038 32b8 163b d9a1 8f3b 9229 2a3b
000000a0: 478c 5d3a 5a60 f836 ffba 2c3a d5fe 9c3a
000000b0: 111e ee36 7d77 2f3a 6dd3 fd3a 6bdb 533a
000000c0: 3988 093a 308a a536 e9c8 123a 3a84 4d3a
000000d0: 0582 9e36 a20c ec39 0341 103a 66c6 073a
000000e0: 7711 423c a664 a738 2dea e43b bb16 053c
000000f0: ab5d a538 5d3a bc3b 6b53 db3c 188b 283c
00000100: ad9f 523b bd7a bb37 f3bf 043b b51e 2a3b
00000110: 5f5e b737 c418 e73a 180c ad3b 006a 213b
00000120: 8f5c e03b c3c8 7338 3254 b33b b583 f53b
00000130: 8ca6 6c38 aa67 863b a46f 6b3c 91c5 cb3b
00000140: 7453 993b 0312 2138 fe0e 603b cb53 a63b
00000150: db52 1c38 57b2 403b 77f7 b23b bbd3 9c3b
00000160: 9f28 0a3c 4162 8638 0e60 e13b 4ca6 013c
00000170: ce9a 8238 462b 973b c5ed 2c3c a44d d73b
00000180: 615d dd3a 5dcc 7437 d9ed 913a 7223 073b
00000190: 1dc3 6d37 b935 a63a bd7e 703b facd bd3a
000001a0: 1704 983a 9a82 1c37 5ea3 653a 8691 ca3a
000001b0: 178c 1537 7cea 613a ad06 233b a9d8 b73a
000001c0: 4734 a53a 164b 4337 0649 9c3a a1ef b83a
000001d0: 6d23 3e37 677e 933a 2147 173b 6657 9d3a
000001e0: 5e76 453b 486d a937 bc7b 043b 0262 ce3a
000001f0: 6d6d a837 3bff b13a 6a93 a53b 41ad 073b
00000200: 4637 863a ed40 2537 c6d2 793a 802c 813a
00000210: 7c00 2037 ba82 453a 320e c13a 4aca 8d3a
00000220: 7d6f 033c abc2 8a38 5e67 b93b 8262 013c
00000230: 0fee 8638 4fdb a33b aef4 6b3c 47aa c53b
00000240: 6cdf f43a f903 8a37 10bf d43a bba9 e93a
00000250: d080 8637 ac07 b53a 0f73 243b 1ed9 fb3a
00000260: ecb3 e639 203d 6436 fb2e be39 ec1d 183a
00000270: acc9 5736 c240 c739 096a e739 6332 9c39
00000280: 8d6b f439 804c 6936 ae18 bc39 fd02 eb39
00000290: b4c7 6236 5208 c539 2bf3 5d3a b980 b839
000002a0: f66c 1f3a 5f36 b236 ef84 073a eb79 4c3a
000002b0: 5a26 a836 cc6d 163a bea6 2a3a 3a08 123a
000002c0: fc99 023a 0d5c 8f36 7e6e e139 6830 253a
000002d0: 1a1f 8436 5394 b939 6250 083a 7612 0a3a
000002e0: 0987 933a b80f 1e37 be67 5c3a daf1 913a
000002f0: da11 1a37 caa9 313a b49f 173b f9ca 843a
00000300: 5ce9 903b b3e9 fc37 13ed 3f3b d826 2b3b
00000310: 2a6c fa37 fcb4 023b c660 033c 695f 653b
00000320: 87dd be3a 162f 6937 f295 b03a c159 c53a
00000330: dda8 6537 5714 553a efd0 213b 4d2a 183b
00000340: a5c6 ab3b 4708 4f38 71e1 853b d709 f23b
00000350: ce07 4a38 f252 7d3b 8e50 533c ed60 b33b
00000360: 3e14 c339 c719 3136 b4bc 8339 c89b 9f39
00000370: 0386 2c36 73fd 5439 6f26 103a a433 e139
00000380: 5554 283a 6cd1 c136 5f66 1f3a 8f53 423a
00000390: 908c be36 ef1a e439 652e fd3a 7ddf 283a
000003a0: b106 783b 6d95 0138 ca8e 643b 3b8d 3d3b
000003b0: e873 ff37 bc18 053b f7d0 ea3b 8c7d 613b
000003c0: b4eb 253b d85d 9f37 6bfb eb3a 871d f43a
000003d0: bf41 9c37 9f80 9f3a 0e07 9d3b 5496 bf3a
000003e0: 32bc fc3a 1585 4d37 d40a bb3a f4b8 913a
000003f0: 63ee 4b37 e3bf 923a b11d 903a e83e 4a3a

exp_avg f4 [128]
0.003317742 -2.2027436e-05 -0.003903546 -0.0005155452 -0.0016878201 -0.00048306133 0.0008993116 -0.0014323111
-0.0010110318 -0.0019022172 -0.00013197339 0.0029527952 -0.0007024883 0.0007182966 -0.0009877075 0.000108734
-0.0010452227 0.00052408676 -0.0010377647 -0.0006213992 0.00038228102 -0.00013064244 -8.092757e-05 0.000105750805
0.0024258674 0.0007454281 0.0005163514 -0.00044088915 0.00016200662 0.00027322237 -0.001718785 0.00044876683
0.0010091484 0.0014184205 -0.0026338133 -0.0007714855 0.0010452768 -8.608144e-05 0.0027888257 -0.0005548509
-0.0007332892 0.00044894498 -0.0022229622 -0.0013872768 -0.00024979352 -1.4859032e-05 -0.00061909517 -0.00033516032
0.00037610065 0.0008393931 0.0017862807 0.00094077946 0.0011116926 0.0032357713 -0.00096832763 0.0010136177
-0.00015623218 -3.8049282e-05 0.00067546347 0.00084737234 0.0010475375 0.0036323129 0.00089862075 0.0005183491
0.0011332037 -0.00066076824 0.00067984604 0.0014724492 0.00086068676 0.00083430466 0.000284269 0.0005102373
0.0009819291 -0.00043243208 0.0003281844 -0.0005142563 -0.00021398456 0.00045569288 -0.0003606887 0.0038270405
-0.00028200747 0.0015253233 0.00536091 0.0031578033 -0.0020611128 0.002034215 0.0011392972 0.0012221122
-0.001756387 -0.003485321 0.0022084918 -0.0013963474 -0.0018983162 0.0003595118 0.0004327319 -0.00028376756
-0.0018228092 -0.00039461197 -0.00019641736 0.00062194635 -0.0003834386 0.0031458444 0.0014865039 -0.00024149222
-0.00028629662 -0.0007697968 0.00032773474 0.0009858328 -0.00057180115 0.0006504878 -0.0010440743 -0.001240938
-0.00082972023 -0.00010637708 -0.00013371895 0.0005736727 0.00041728775 0.00027873 -1.8520932e-05 -9.725112e-05
0.00016000446 0.00035236622 0.002231613 -0.00030089976 0.002959271 0.00038285935 -8.505053e-05 -0.0030049644
00000000: 796e 593b 8fc7 b8b7 a2d2 7fbb a725 07ba
00000010: d839 ddba 6543 fdb9 c8bf 6b3a 63bc bbba
00000020: 9984 84ba d153 f9ba 5662 0ab9 af83 413b
00000030: 3127 38ba 124c 3c3a f775 81ba 1f08 e438
00000040: dbff 88ba de62 093a 9b05 88ba 65e5 22ba
00000050: e46c c839 10fd 08b9 a9b7 a9b8 88c6 dd38
00000060: 4dfb 1e3b d568 433a c25b 073a 2427 e7b9
00000070: 52e0 2939 493f 8f39 db48 e1ba 7748 eb39
00000080: 6745 843a 4bea b93a 0e9c 2cbb 843d 4aba
00000090: ab01 893a 9f86 b4b8 bbc4 363b 6a73 11ba
000000a0: 353a 40ba 6060 eb39 1eaf 11bb 49d5 b5ba
000000b0: b8f6 82b9 0e4b 79b7 c64a 22ba 75b8 afb9
000000c0: 602f c539 b80a 5c3a a221 ea3a a49e 763a
000000d0: 37b6 913a 3c0f 543b 5ed7 7dba 5edb 843a
000000e0: 42d2 23b9 1b97 1fb8 9611 313a 3222 5e3a
000000f0: 874d 893a 190c 6e3b 6b91 6b3a d2e1 073a
00000100: 0288 943a 6837 2dba b237 323a 32ff c03a
00000110: b69f 613a 3db5 5a3a f009 9539 72c1 053a
00000120: 13b4 803a 0db8 e2b9 2a10 ac39 28cf 06ba
00000130: 0b61 60b9 10ea ee39 d11a bdb9 16cf 7a3b
00000140: 67da 93b9 5bed c73a 93aa af3b 26f3 4e3b
00000150: bc13 07bb 7750 053b 7854 953a 482f a03a
00000160: 9136 e6ba fc69 64bb 58bc 103b a505 b7ba
00000170: ecd0 f8ba db7c bc39 4be0 e239 a3c6 94b9
00000180: 54eb eeba ece3 ceb9 62f5 4db9 1d0a 233a
00000190: 4208 c9b9 832a 4e3b cbd6 c23a 1339 7db9
000001a0: 151a 96b9 30cc 49ba d0d3 ab39 0f37 813a
000001b0: ede4 15ba 7f85 2a3a 52d9 88ba f8a6 a2ba
000001c0: 9581 59ba c316 dfb8 e836 0cb9 8662 163a
000001d0: 6ac7 da39 8222 9239 665d 9bb7 4cf3 cbb8
000001e0: dfc6 2739 cbbd b839 4140 123b 15c2 9db9
000001f0: 54f0 413b 83ba c839 285d b2b8 f0ee 44bb

exp_avg_sq f4 [128]
0.000102264865 1.0439777e-05 0.00014386991 8.747221e-05 0.00012389981 2.9608773e-05 1.9733883e-05 0.00031927708
8.939717e-05 0.00023249077 0.0001536087 0.00025631677 5.836446e-05 3.731493e-05 4.6561556e-05 8.0789025e-05
3.9399532e-05 0.0002646645 6.581093e-05 1.3604091e-05 1.3905695e-05 2.1244572e-05 1.7089793e-05 3.768477e-05
0.00012059826 5.559538e-05 0.00019744143 1.0556022e-05 2.310491e-05 0.00012358064 7.5991906e-05 4.8999755e-05
1.736038e-05 4.7632144e-05 0.0004352589 5.0628736e-05 8.200882e-05 1.1880007e-05 0.00016622886 2.240042e-05
1.4540081e-05 4.4912114e-05 6.174259e-05 8.699057e-05 0.00013345636 1.2518053e-05 4.1528438e-05 3.5820405e-05
7.867523e-05 9.8632545e-06 9.1028196e-05 7.4904e-05 5.045649e-05 0.00022402723 7.642297e-05 9.278614e-05
1.0329809e-05 8.6207165e-06 7.81958e-05 3.29796e-05 9.205397e-05 8.7243505e-05 0.00016928716 2.3187178e-05
1.6201848e-05 9.59473e-05 1.3078367e-05 7.219543e-05 4.507983e-05 1.9418112e-05 5.98995e-05 2.5264346e-05
6.4990025e-05 2.3472912e-05 6.6825465e-05 8.660631e-05 1.5772659e-05 4.6715842e-05 9.167681e-05 0.00013868643
0.00010304233 4.770078e-05 0.0002742402 0.00014581751 0.00024851487 8.5879175e-05 4.69624e-05 6.0494633e-05
8.81445e-05 0.00040608918 6.891412e-05 0.00013567459 2.883672e-05 1.22521e-05 0.00011505918 3.2874454e-05
0.00019066402 8.4227155e-05 0.00020023723 2.9160095e-05 1.665927e-05 8.004716e-05 9.094516e-05 2.6418145e-05
3.0496738e-05 2.4717503e-05 0.000108761495 0.00014107421 8.623538e-06 2.4778175e-05 5.691929e-05 5.081162e-05
4.3521115e-05 1.4794578e-05 1.2522394e-05 2.5980093e-05 7.861925e-06 3.486599e-05 2.4822519e-05 3.4084438e-05
2.4696814e-05 1.3985018e-05 6.5866196e-05 1.7113314e-05 8.5959386e-05 0.00020688919 5.7495392e-05 0.00057914696
00000000: 0877 d638 8026 2f37 c9db 1639 4971 b738
00000010: 1aeb 0139 5b60 f837 318a a537 a564 a739
00000020: bd7a bb38 c4c8 7339 0512 2139 4162 8639
00000030: 5dcc 7438 9a82 1c38 174b 4338 476d a938
00000040: ed40 2538 abc2 8a39 f903 8a38 203d 6437
00000050: 814c 6937 5f36 b237 0d5c 8f37 b70f 1e38
00000060: b3e9 fc38 162f 6938 4808 4f39 c519 3137
00000070: 6bd1 c137 6d95 0139 d85d 9f38 1685 4d38
00000080: 22a1 9137 a0c8 4738 7633 e439 315a 5438
00000090: 26fc ab38 3e50 4737 b84d 2e39 89e8 bb37
000000a0: 2cf1 7337 0460 3c38 cd7b 8138 b56e b638
000000b0: 6bf0 0b39 a104 5237 d22e 2e38 de3d 1638
000000c0: 71fe a438 5b7a 2537 64e6 be38 c715 9d38
000000d0: 3ea1 5338 dae8 6a39 4545 a038 2e96 c238
000000e0: 314e 2d37 b2a1 1037 0dfd a338 9353 0a38
000000f0: 190d c138 80f6 b638 ad82 3139 1682 c237
00000100: 34e9 8737 5137 c938 296b 5b37 a067 9738
00000110: 1914 3d38 14e4 a237 993c 7b38 c5ee d337
00000120: 414b 8838 b2e7 c437 a624 8c38 69a0 b538
00000130: 874f 8437 c1f0 4338 9d42 c038 5b6c 1139
00000140: 6e18 d838 5312 4838 e6c7 8f39 97e6 1839
00000150: 1a4b 8239 081a b438 7ef9 4438 9ebb 7d38
00000160: 38da b838 5ee8 d439 fd85 9038 df43 0e39
00000170: 62e6 f137 5e8e 4d37 ed4b f138 ade2 0938
00000180: fcec 4739 1ca3 b038 c6f6 5139 d49c f437
00000190: 83bf 8b37 fede a738 d0b9 be38 899c dd37
000001a0: 3fd3 ff37 6f58 cf37 e216 e438 52ed 1339
000001b0: d0ad 1037 bada cf37 9fbc 6e38 901e 5538
000001c0: 718a 3638 3b36 7837 4617 5237 d3ef d937
000001d0: b6e6 0337 123d 1238 f439 d037 e3f5 0e38
000001e0: 012c cf37 32a1 6a37 a521 8a38 908e 8f37
000001f0: 1845 b438 65f0 5839 3527 7138 e5d1 173a
