mltest/ml-agents-release_19/config/ppo/results/dummyPilot/RollerBall.onnx (onnx, 73668 bytes, 7 tensors)

network_body._body_endoder.seq_layers.0.weight f4 [128, 8]
0.07583273 0.17600287 0.009473769 0.47063166 -0.04855248 0.22859988 0.41193888 0.602516
0.3959024 -0.1428415 0.19825654 -0.39147097 -0.6540032 0.16856039 -0.3323003 0.5843516
-0.099028066 -0.2406312 0.63873744 -0.26912344 0.5545148 -0.5597954 -0.28619778 -0.7721457
0.49839252 0.30266106 -0.0730711 -0.4492825 -0.4994962 -0.73355174 -0.15101752 0.7668006
0.041701086 -0.019051671 -0.32666507 0.5984372 0.17097214 -0.07002606 0.20821038 0.5144357
-0.23402 -0.5357291 0.101008125 0.1370291 -0.44543272 -0.8855528 0.28463843 0.6172676
0.19560449 0.6497432 -0.06086522 -0.27048382 -0.41575584 0.12474219 -0.31902793 -0.02390846
0.22273795 -0.33458543 0.22802597 -0.6287757 -0.65028393 0.18333791 0.29333067 0.43220308
0.2321103 0.37283605 -0.5112344 -0.35887662 0.16099052 -0.19994116 0.7307737 0.076613836
-0.24917921 0.61446285 -0.40279326 0.24583323 -0.42300522 0.09570255 0.48360452 -0.121171355
-0.018567309 0.39241856 0.16292271 -0.39314964 0.3422281 0.7291285 -0.43763924 -0.0803141
0.43643254 -0.06664411 0.54127294 0.15990366 -0.22342154 -0.6989599 -0.45097712 0.4570705
-0.3369296 0.19710128 0.6509542 -0.23443954 0.27043587 1.223842 -0.14172368 -0.035468742
-0.15616506 0.6373614 -0.49280697 0.056109164 0.5973254 -0.050708484 0.09633348 0.404386
-0.22001104 -0.08037837 -0.017896872 -0.2557771 -0.49680036 -0.030751057 -0.30544588 -0.25553927
-0.29016963 -0.106479354 0.09299865 -0.060225848 -0.26205733 0.1039804 -0.021451479 -0.015097243
0.3599229 0.24130777 -0.30029702 0.15778297 0.16503392 -0.32222933 -0.21164155 0.051975083
0.30309844 -0.15293321 0.36459455 -0.3087701 -0.25271264 -0.18715616 0.29200906 -0.010790966
0.15544547 0.19947706 0.015090858 -0.3629207 0.5873269 0.037319634 0.18756394 -0.3831652
-0.331243 0.32234576 -0.2308028 0.13848361 0.061742168 0.33553773 0.25368306 0.14479709
-0.4944694 0.34361473 0.60200524 -0.021669898 -0.09516142 0.018481785 0.3235394 0.22901492
-0.30907777 -0.17519031 0.109762155 0.23809005 0.04390357 0.11853374 -0.23678912 0.13783285
0.20387001 -0.5863232 -0.14482293 0.15343572 -0.26246458 -0.21082927 -0.71086115 0.16839847
0.30459744 0.52378815 -0.019402193 0.2050147 -0.2120326 -0.7082689 0.26123112 0.07586174
-0.21303806 -0.030676192 0.18650803 0.2239065 -0.59464616 -0.17922714 -0.11083903 0.18493816
-0.07116067 -0.22286303 0.14407322 0.45706788 -0.12681955 0.19112086 0.11965796 0.42612842
0.17648588 -0.33528656 -0.2418528 0.3177279 0.1266893 1.1000597 -0.0916617 0.41164687
0.31286022 0.0898554 -0.17329608 0.19972865 -0.7180492 -0.13449165 -0.45862177 -0.06511007
-0.42814255 -0.34189165 0.15222268 -0.43551993 0.3447709 -0.478636 0.082036845 0.7731831
0.21338093 -0.017584825 0.13737963 0.5385277 -0.07675388 -0.25806883 0.7785994 -0.14881925
0.33796567 -0.0110312505 -0.43564156 0.35651428 0.23693672 -0.18106675 0.82870996 -0.17178896
0.18674354 0.27675837 -0.20855498 -0.7527126 0.14077094 0.26714218 -0.55671763 -0.4034923
00000000: 314e 9b3d 193a 343e de37 1b3c a2f6 f03e
00000010: f7de 46bd 1616 6a3e a7e9 d23e 7d3e 1a3f
00000020: b8b3 ca3e 0b45 12be c303 4b3e e26e c8be
00000030: c16c 27bf 189b 2c3e 4423 aabe 1198 153f
00000040: 3acf cabd 0668 76be 4c84 233f 8cca 89be
00000050: aff4 0d3f c04e 0fbf 8488 92be 57ab 45bf
00000060: 4e2d ff3e 64f6 9a3e 4da6 95bd 5b08 e6be
00000070: f7bd ffbe 0cca 3bbf 56a4 1abe 0b4d 443f
00000080: c2ce 2a3d 4012 9cbc a540 a7be 2e33 193f
00000090: 5213 2f3e d369 8fbd 1a35 553e 0fb2 033f
000000a0: f0a2 6fbe 8b25 09bf 59dd ce3d 5b51 0c3e
000000b0: c20f e4be 97b3 62bf 21bc 913e 4005 1e3f
000000c0: 8b4c 483e 9255 263f cf4d 79bd db7c 8abe
000000d0: f3dd d4be d578 ff3d a157 a3be addb c3bc
000000e0: 6b15 643e c84e abbe a47f 693e 72f7 20bf
000000f0: 0279 26bf efbc 3b3e 702f 963e b949 dd3e
00000100: 53ae 6d3e 5ee4 be3e 42e0 02bf adbe b7be
00000110: b3da 243e 60bd 4cbe fc13 3b3f b7e7 9c3d
00000120: d628 7fbe 704d 1d3f eb3a cebe b5bb 7b3e
00000130: 2494 d8be b3ff c33d 039b f73e b028 f8bd
00000140: 781a 98bc 16eb c83e 36d5 263e e94a c9be
00000150: 8638 af3e 2aa8 3a3f 4012 e0be b87b a4bd
00000160: 1674 df3e b57c 88bd dd90 0a3f c9bd 233e
00000170: 9ec8 64be 09ef 32bf 79e6 e6be 2505 ea3e
00000180: 0982 acbe ebd4 493e efa4 263f eb10 70be
00000190: 9276 8a3e dba6 9c3f 0320 11be ac47 11bd
000001a0: bce9 1fbe 1e2a 233f 3251 fcbe b9d2 653d
000001b0: 51ea 183f b3b3 4fbd 7d4a c53d af0b cf3e
000001c0: 934a 61be 6a9d a4bd 769c 92bc 37f5 82be
000001d0: 9e5c febe a4e9 fbbc 6763 9cbe 0bd6 82be
000001e0: 1d91 94be d911 dabd 1476 be3d 61af 76bd
000001f0: 612c 86be adf3 d43d 03bb afbc 6d5a 77bc
00000200: d047 b83e 6219 773e 88c0 99be dc91 213e
00000210: a7fe 283e 3efb a4be 90b8 58be d3e3 543d
00000220: b82f 9b3e 869a 1cbe 23ac ba3e 1d17 9ebe
00000230: 8d63 81be dda5 3fbe 3682 953e 98cc 30bc
00000240: 192d 1f3e b743 4c3e a53f 773c bed0 b9be
00000250: 0e5b 163f 79dc 183d c310 403e 3b2e c4be
00000260: af98 a9be 810a a53e 9257 6cbe a6ce 0d3e
00000270: 5be5 7c3d 9acb ab3e bfe2 813e b045 143e
00000280: 182b fdbe 45ee af3e 041d 1a3f 1285 b1bc
00000290: fee3 c2bd 1d67 973c f5a6 a53e e382 6a3e
000002a0: 713f 9ebe 1765 33be fbca e03d e1cd 733e
000002b0: 3bd4 333d d1c1 f23d d978 72be 0e24 0d3e
000002c0: 4dc3 503e 4719 16bf 764c 14be 411e 1d3e
000002d0: c261 86be a1e3 57be fffa 35bf a670 2c3e
000002e0: 32f4 9b3e fb16 063f 59f1 9ebc 60ef 513e
000002f0: 131f 59be 1c51 35bf 16c0 853e 665d 9b3d
00000300: a626 5abe a34c fbbc f6fb 3e3e bf47 653e
00000310: bb3a 18bf 5287 37be 93ff e2bd 6e60 3d3e
00000320: afbc 91bd 3536 64be ee87 133e cd04 ea3e
00000330: fcdc 01be 30b5 433e 3c0f f53d 812d da3e
00000340: b7b8 343e aeaa abbe 43a8 77be 3bad a23e
00000350: d7ba 013e c2ce 8c3f 21b9 bbbd 61c3 d23e
00000360: 372f a03e 1c06 b83d 8774 31be ab85 4c3e
00000370: 13d2 37bf 2eb8 09be 79d0 eabe 6e58 85bd
00000380: 8035 dbbe 6c0c afbe 43e0 1b3e 78fc debe
00000390: d085 b03e c70f f5be ef02 a83d 54ef 453f
000003a0: 8880 5a3e 0d0e 90bc 3fad 0c3e f4dc 093f
000003b0: 2331 9dbd 9921 84be 4a52 473f 1364 18be
000003c0: d609 ad3e 6bbc 34bc 690c dfbe 0a89 b63e
000003d0: 8a9f 723e 9069 39be 5626 543f 72e9 2fbe
000003e0: b339 3f3e 46b3 8d3e 708f 55be c6b1 40bf
000003f0: 4226 103e dcc6 883e 0c85 0ebf 8b96 cebe

network_body._body_endoder.seq_layers.0.bias f4 [128]
0.00094742456 -0.0032046342 -0.0001544587 -0.0038006543 -0.001351136 -0.00057997066 0.0042324476 0.001603866
0.00036616204 0.0025394286 -0.0041452195 -0.0008029313 -0.00028208754 -0.0016703798 0.00060254626 0.0039428114
-0.0023230095 -0.0021316851 0.0025514446 0.0033942664 -0.001982595 -0.0015048754 0.00061716686 -0.001792363
-0.004796334 -0.002149413 -0.0012713542 0.00041049192 -0.005143504 0.0046751024 -0.001410429 -0.001505382
-0.0007529066 0.00016221657 0.0014761497 9.822751e-05 -0.0019626585 0.0052676136 0.0026521431 -0.0027862443
0.00037189006 -0.0014307108 0.0048570773 -0.000771212 -0.00086539926 -0.0024702463 -0.0018647664 -0.0005952798
-0.0034636273 -0.0064187194 0.0032336817 0.0030157368 -0.0019075618 0.0039156005 -0.0016213824 0.00071578583
-0.0015282021 0.00074222335 0.0014313499 4.8650658e-05 0.0008875775 0.004155147 -0.0011593304 -5.7180878e-05
-0.0031015864 -2.2209686e-05 0.0012058809 0.00055736 0.006962673 0.0007511938 -0.0032540497 0.00016720578
-0.004368843 -0.0034776076 0.00329522 -0.0024745183 0.0015849342 0.0004944159 0.00014322868 0.0017266221
5.0233357e-06 -0.0032098629 0.00024951677 -0.00067353516 -0.0022271257 -2.2849934e-05 -0.0027122316 0.0019806179
-0.0027126563 0.0024815537 0.0030381856 -0.00031901285 4.9153834e-05 0.0019075787 0.0012165451 0.001033175
0.0013493738 -0.0006884579 -0.0014154413 0.0042339717 -0.0022634862 -0.0020473727 -0.0020572206 0.00087393937
-0.00084812235 -0.0021507246 -0.0031910564 -0.0026181042 3.2458083e-05 -0.0024981394 -0.0061751506 -0.0010317732
0.0039552115 -0.0033248542 -0.0035535977 -0.0006384378 0.000760011 0.00020185455 -0.0013642907 -0.003946831
-0.0021321713 -0.001478371 0.00026822882 -0.001527165 -0.0006572337 -0.0027777336 -0.005099716 -0.005500487
00000000: 965c 783a d704 52bb 31f6 21b9 6614 79bb
00000010: 9a18 b1ba 2c09 18ba 58b0 8a3b d038 d23a
00000020: 70f9 bf39 8b6c 263b 9fd4 87bb cf7b 52ba
00000030: 26e5 93b9 a5f0 daba 32f4 1d3a b332 813b
00000040: a23d 18bb beb3 0bbb 2336 273b 5772 5e3b
00000050: 6dee 01bb 3d3f c5ba 5ec9 213a b9ed eaba
00000060: 912a 9dbb 2bdd 0cbb 91a3 a6ba 4b37 d739
00000070: d78a a8bb 9a31 993b 25de b8ba 3d50 c5ba
00000080: b55e 45ba ae18 2a39 5d7b c13a 7eff cd38
00000090: f29f 00bb f29b ac3b 94cf 2d3b 6c99 36bb
000000a0: 3dfa c239 b086 bbba 1e28 9f3b 292b 4aba
000000b0: f6db 62ba dbe3 21bb 2d6b f4ba 8d0c 1cba
000000c0: 06fe 62bb 1f54 d2bb 2dec 533b aba3 453b
000000d0: 2707 faba 704e 803b 9184 d4ba 93a3 3b3a
000000e0: f44d c8ba c491 423a 229c bb3a 3f0e 4c38
000000f0: 51ac 683a e627 883b acf4 97ba 80d5 6fb8
00000100: fc43 4bbb f04e bab7 a60e 9e3a cc1b 123a
00000110: 2227 e43b c3eb 443a e541 55bb f653 2f39
00000120: 8328 8fbb 93e8 63bb 9ef4 573b 872b 22bb
00000130: 91bd cf3a b09b 013a a82f 1639 d34f e23a
00000140: 208e a836 905c 52bb 93d1 8239 2e90 30ba
00000150: f8f4 11bb dcad bfb7 b2bf 31bb 41cd 013b
00000160: d2c6 31bb 90a1 223b 4c1c 473b 2e41 a7b9
00000170: 872a 4e38 b807 fa3a 7b74 9f3a 9a6b 873a
00000180: 79dd b03a a179 34ba 5486 b9ba 21bd 8a3b
00000190: ff56 14bb 372d 06bb 6fd2 06bb 1419 653a
000001a0: 8754 5eba 2cf3 0cbb 0b21 51bb 8094 2bbb
000001b0: 9a23 0838 d3b7 23bb eb58 cabb 903c 87ba
000001c0: b89a 813b cce5 59bb 7ae3 68bb d65c 27ba
000001d0: 7a3b 473a eba8 5339 00d2 b2ba 6b54 81bb
000001e0: e6bb 0bbb e6c5 c1ba 10a1 8c39 272b c8ba
000001f0: 354a 2cba a30a 36bb 851b a7bb 6e3d b4bb

network_body._body_endoder.seq_layers.2.weight f4 [128, 128]
0.026547715 -0.05010275 -0.07714412 0.024785426 0.025242476 -0.091154836 -0.029799573 -0.14188361
0.03457354 0.0054464433 -0.11171793 0.14440204 -0.16368426 0.069504976 -0.030947287 -0.036155667
-0.08975806 -0.101689845 -0.074242294 0.01985967 -0.06220494 0.069464445 0.1816124 0.0130061805
0.008975161 0.1172594 -0.05046262 0.023233173 -0.21985757 0.09395192 -0.038614884 0.1401533
-0.017374655 -0.0050681885 -0.022501945 0.086896375 -0.050407663 -0.07815593 0.16674498 0.007953193
-0.020265391 -0.012331891 0.05607422 -0.11721528 -0.058423698 -0.06883378 -0.07268783 0.11839309
-0.043718744 0.052522577 -0.07450203 -0.0918146 -0.13791889 -0.051746838 0.23094562 0.08087566
-0.018798696 0.012252016 0.02652335 0.021429347 -0.18041754 0.050970055 -0.06717773 0.120288126
-0.010927004 0.062512964 0.09869411 0.019631434 -0.065349445 -0.016466638 -0.06431251 0.011892402
-0.052576046 -0.030102171 -0.100543976 0.13795759 0.014711435 -0.029212594 0.00918193 0.15594295
-0.01989024 -0.086445 0.01621826 -0.0867865 0.006506167 0.08778529 -0.044145122 -0.0074015134
0.043930154 -0.17888133 -0.12003246 -0.010422399 0.119204536 -0.10336756 0.01895754 0.035857107
0.15669847 -0.026176168 -0.016467145 -0.074098736 0.13682103 0.03441479 0.14555445 0.09678818
-0.18758035 -0.003405579 0.10997811 -0.028143855 -0.035075054 -0.048890587 0.11318222 0.082248405
-0.1548152 -0.11039888 0.017032014 -0.0301653 0.25019133 -0.15601872 -0.060503583 0.12981965
0.040068664 -0.044481285 -0.034729484 -0.04484601 0.07599749 0.0045965333 -0.0032453954 -0.0043514324
-0.12682085 -0.0045844293 -0.031298365 0.07095856 0.19716868 -0.013398901 -0.040317923 -0.014525927
-0.016289778 0.015982993 -0.14047852 -0.06437441 0.03638915 -0.0068714297 0.019608317 -0.079176925
0.104631275 0.01962831 -0.19558562 -0.101156026 0.05309272 -0.08126759 -0.13154322 -0.014089197
0.06665307 -0.03493959 -0.013454854 -0.08909912 -0.0143512385 0.0053523052 -0.02197957 0.21515422
0.10862536 -0.061610643 0.14507763 -0.04962662 -0.08861028 0.15637054 -0.071188144 0.019945176
-0.062136818 -0.015272375 0.115684085 0.0687081 -0.028506998 -0.03905992 -0.013379463 -0.036963213
0.047419325 0.014570628 -0.0076897433 -0.019614527 0.10759463 0.0023050436 0.08157523 0.1319279
0.13190086 0.047466666 0.082860604 0.060775932 -0.10576611 0.15554887 0.034567993 0.061368845
0.05980887 -0.06857882 -0.11484492 0.049889974 0.002285739 0.051559895 0.17216115 -0.026146125
-0.083827525 -0.11208147 -0.06768208 -0.013386005 0.080733754 0.034020413 0.04402365 -0.10278852
0.025146304 0.1269407 0.053127598 0.04398434 -0.079691745 0.08572635 0.04345976 0.1572648
-0.029314645 0.036512926 -0.17302345 0.060312953 -0.06452327 -0.08975783 -0.08879388 0.03976402
0.14577073 0.014156907 -0.08697144 0.03374547 -0.13476501 -0.08274999 -0.107659206 -0.024609335
0.008921074 0.08604628 -0.1038779 -0.16661854 -0.05601545 -0.057130132 -0.10236723 -0.02794583
-0.09498907 0.03645067 0.04770439 0.1895518 0.10404747 -0.058439374 0.14492856 0.038625844
-0.099877276 0.0076951953 0.04519064 0.18488766 -0.06104607 -0.14199685 0.028603783 -0.08361918
00000000: 987a d93c 8b38 4dbd bdfd 9dbd ce0a cb3c
00000010: 4fc9 ce3c 63af babd 3c1e f4bc f049 11be
00000020: fc9c 0d3d 1478 b23b 5fcc e4bd 21de 133e
00000030: d99c 27be a058 8e3d 2a85 fdbc f717 14bd
00000040: 13d3 b7bd c442 d0bd 580c 98bd bfb0 a23c
00000050: 9bca 7ebd 6043 8e3d 9af8 393e e017 553c
00000060: 8e0c 133c b225 f03d e4b1 4ebd 7f53 be3c
00000070: 5822 61be dd69 c03d a42a 1ebd 5984 0f3e
00000080: 4b55 8ebc 0c13 a6bb 0056 b8bc baf6 b13d
00000090: 4478 4ebd 3710 a0bd 32bf 2a3e 1c4e 023c
000000a0: 9b03 a6bc b30b 4abc 15ae 653d 910e f0bd
000000b0: b04d 6fbd baf8 8cbd 5bdd 94bd 1478 f23d
000000c0: 6d12 33bd ea21 573d 8594 98bd 4b09 bcbd
000000d0: 9c3a 0dbe 7ef4 53bd 027d 6c3e 23a2 a53d
000000e0: b9ff 99bc aebc 483c 7f47 d93c 998c af3c
000000f0: 60bf 38be fac5 503d 7a94 89bd 9f59 f63d
00000100: 2d07 33bc cc06 803d 2320 ca3d 1ad2 a03c
00000110: eed5 85bd 0be5 86bc 47b6 83bd 59d8 423c
00000120: fb59 57bd d498 f6bc 00ea cdbd c144 0d3e
00000130: 3b08 713c 404f efbc ce6f 163c 82af 1f3e
00000140: dbf0 a2bc 130a b1bd 28dc 843c 1fbd b1bd
00000150: af31 d53b c6c8 b33d 84d1 34bd 6588 f2bb
00000160: 1bf0 333d ab2c 37be 94d3 f5bd b6c2 2abc
00000170: 8221 f43d 5fb2 d3bd d84c 9b3c e7de 123d
00000180: 9075 203e 676f d6bc 1be6 86bc 14c1 97bd
00000190: d01a 0c3e 86f6 0c3d 3a0c 153e e238 c63d
000001a0: 1015 40be 2230 5fbb 343c e13d f18d e6bc
000001b0: dcaa 0fbd 7f41 48bd 14cc e73d da71 a83d
000001c0: e087 1ebe cf18 e2bd b986 8b3c 381d f7bc
000001d0: 1419 803e 5fc3 1fbe 9bd2 77bd 71ef 043e
000001e0: 0a1f 243d 0232 36bd 8140 0ebd 73b0 37bd
000001f0: 92a4 9b3d 849e 963b b3b0 54bb 7696 8ebb
00000200: 53dd 01be fb38 96bb b732 00bd b952 913d
00000210: 96e6 493e 1087 5bbc 6824 25bd 27fe 6dbc
00000220: 2472 85bc c4ee 823c 9ad9 0fbe bbd6 83bd
00000230: ca0c 153d bb29 e1bb 9fa1 a03c 8327 a2bd
00000240: ec48 d63d 8dcb a03c 9947 48be e42a cfbd
00000250: c177 593d 9f6f a6bd 44b3 06be 60d6 66bc
00000260: 6881 883d d11c 0fbd bf71 5cbc 9979 b6bd
00000270: 7521 6bbc 6462 af3b 800e b4bc 6351 5c3e
00000280: f976 de3d 715b 7cbd 3b8f 143e 4845 4bbd
00000290: 4e79 b5bd 991f 203e 17cb 91bd 1164 a33c
000002a0: 2d83 7ebd fc38 7abc c7eb ec3d d5b6 8c3d
000002b0: 8287 e9bc 4bfd 1fbd 8935 5bbc bd66 17bd
000002c0: c43a 423d a5b9 6e3c 3efa fbbb a5ae a0bc
000002d0: 935a dc3d 3710 173b ea10 a73d 1b18 073e
000002e0: 0511 073e 686c 423d d2b2 a93d 2ff0 783d
000002f0: e79b d8bd 3448 1f3e 2b97 0d3d e65d 7b3d
00000300: 25fa 743d 0d73 8cbd d033 ebbd 6e59 4c3d
00000310: 56cc 153b 7830 533d 034b 303e 6630 d6bc
00000320: c4ad abbd f88a e5bd e79c 8abd f950 5bbc
00000330: bd57 a53d fd58 0b3d 2552 343d ca82 d2bd
00000340: 9fff cd3c befc 013e 539c 593d ec28 343d
00000350: 6d35 a3bd 4c91 af3d dc02 323d 060a 213e
00000360: 4425 f0bc 948e 153d 0f2d 31be b70a 773d
00000370: c724 84bd f4d2 b7bd 91d9 b5bd 99df 223d
00000380: ec44 153e 5ff2 673c 151e b2bd b138 0a3d
00000390: d7ff 09be d478 a9bd 6e7c dcbd 8499 c9bc
000003a0: b229 123c 0839 b03d f0bd d4bd 0d9e 2abe
000003b0: 7570 65bd 4901 6abd e9a5 d1bd a7ee e4bc
000003c0: a189 c2bd 4c4d 153d ae65 433d de19 423e
000003d0: d716 d53d 205e 6fbd 2768 143e 2236 1e3d
000003e0: 758c ccbd fa27 fc3b d219 393d 3153 3d3e
000003f0: 720b 7abd 9f67 11be 7b52 ea3c 8840 abbd

network_body._body_endoder.seq_layers.2.bias f4 [128]
0.0004219206 0.00070347404 -0.0032411446 0.001968458 -0.0022445577 0.0016112309 -0.0029231892 -0.0017109193
0.00029670965 -0.0013967373 0.00137084 -0.0015711192 -6.7943576e-05 -0.000599992 -0.0036492497 0.0012973836
0.00033931635 -0.0019652667 -0.002840044 -0.00084204593 0.0010867364 -0.002268346 0.0008527518 -0.00055184314
-0.0024326355 -0.0028678554 0.0025446254 -0.00176138 -0.00043313415 0.0010881035 0.00041043828 -0.0023125524
-0.004145115 0.0010739274 0.00035685912 -8.007272e-05 0.00075214624 0.0008204848 -0.0014118584 0.00016642001
-0.0021446268 0.0013679799 -0.0012926055 -0.0032060726 -0.0030589092 -0.0016934206 -0.0015198297 0.0005972089
0.006259121 -0.0010746773 0.0011365139 -0.0010374484 -0.0035200003 0.0016249917 -0.0009413199 -0.00036154088
-0.0015481765 -0.00482407 -0.0011729039 -0.0034775264 -0.0016384346 0.002063319 -0.00033004867 0.00066963
-0.00030698447 -0.00068778504 -5.400094e-06 -0.0012433879 0.00077050383 -0.0046962444 -0.003640642 -0.002509357
-0.0017299808 0.0009487269 -0.00040510643 0.0042694435 0.0028737816 -0.0033522623 -0.00091588456 0.002443729
0.00045490733 -0.00092131173 -0.00052256166 -0.0021048107 -0.0034837218 -0.002623801 0.002800582 9.878218e-05
0.00070792396 0.0016474822 2.0086416e-05 -0.0014566034 -0.00037929384 0.0026272312 0.0010964089 -0.0016048651
-0.00037799604 0.0043801097 -0.0015629905 0.00048448605 -0.0009658581 -0.0006616943 0.00015903509 -0.0009358105
0.000564049 -0.0015257404 -0.001548151 0.0022149791 0.0019842112 0.000991764 -0.0016730302 0.0011734406
-0.0023544154 0.00198042 -0.002834447 0.0023116719 -0.0029033185 0.00030600256 -0.0011596412 -0.00031680768
0.0016809072 -0.0024214678 0.0019481443 -0.0027219418 -0.00036025303 0.0010280986 0.0033862921 -0.0014177734
00000000: 3935 dd39 5869 383a 6269 54bb 3f01 013b
00000010: 6e19 13bb f02f d33a fa92 3fbb ed40 e0ba
00000020: b28f 9b39 ba12 b7ba c2ad b33a 03ee cdba
00000030: ee7c 8eb8 c848 1dba 4028 6fbb f80c aa3a
00000040: 45e6 b139 b4cb 00bb 0820 3abb bfbc 5cba
00000050: d370 8e3a 88a8 14bb 348b 5f3a 91a9 10ba
00000060: da6c 1fbb a1f2 3bbb bbc3 263b 1bde e6ba
00000070: 4816 e3b9 b29e 8e3a 1830 d739 318e 17bb
00000080: bfd3 87bb 06c3 8c3a d218 bb39 b7ec a7b8
00000090: ae2b 453a ce15 573a 1b0e b9ba 0881 2e39
000000a0: de8c 0cbb ca4d b33a a56c a9ba f91c 52bb
000000b0: fb77 48bb c4f5 ddba 0635 c7ba 038e 1c3a
000000c0: 5019 cd3b 30dc 8cba 14f7 943a fefa 87ba
000000d0: ceaf 66bb acfd d43a e9c2 76ba 328d bdb9
000000e0: 2fec caba 3b13 9ebb 20bc 99ba 36e7 63bb
000000f0: bec0 d6ba c038 073b 620a adb9 1c8a 2f3a
00000100: c2f2 a0b9 794c 34ba 7432 b5b6 2df9 a2ba
00000110: a3fb 493a f4e2 99bb d697 6ebb 0674 24bb
00000120: 86c0 e2ba fcb3 783a 7764 d4b9 b0e6 8b3b
00000130: 0e56 3c3b a1b1 5bbb f917 70ba f826 203b
00000140: a180 ee39 2f84 71ba 85fc 08ba ddf0 09bb
00000150: 274f 64bb 13f4 2bbb f889 373b 4729 cf38
00000160: f993 393a 54f0 d73a 407f a837 80eb beba
00000170: f5db c6b9 a02d 2c3b 61b5 8f3a 565a d2ba
00000180: c52d c6b9 0687 8f3b 42dd ccba 9e02 fe39
00000190: a431 7dba 8e75 2dba a8c2 2639 2e51 75ba
000001a0: b0dc 133a 5afb c7ba 54eb caba 2f29 113b
000001b0: 8a09 023b 14fe 813a 9449 dbba 22ce 993a
000001c0: 894c 1abb efc9 013b 21c2 39bb 6b7f 173b
000001d0: 9a45 3ebb f86e a039 1aff 97ba 3519 a6b9
000001e0: e351 dc3a 7db1 1ebb e058 ff3a 9b62 32bb
000001f0: 58e0 bcb9 44c1 863a 8eec 5d3b 95d4 b9ba

action_model._continuous_distribution.log_sigma f4 [1, 2]
0.0014744856 -0.0028474734
00000000: 8743 c13a ad9c 3abb

action_model._continuous_distribution.mu.weight f4 [2, 128]
-0.0059221094 0.00808258 -0.007430591 0.02686841 0.014117839 0.02975001 -0.030991225 0.008394663
0.020003654 0.0098336395 0.007318365 0.002175487 0.006201411 -0.0032395513 0.0113094505 0.023867618
0.008017476 -0.020406418 -0.013143291 0.020082036 0.012544761 0.00444281 0.0007815624 0.006372419
-0.0099278735 -0.024803396 0.043473214 -0.0064689303 -0.043429386 -0.018900618 0.007233672 -0.0035069005
0.0125585655 0.016041094 -0.0014809059 -0.036476694 0.0067870887 0.009634743 -0.01310618 0.026499072
-0.014889961 -0.015787493 0.0031152468 -0.012354146 -0.027326744 0.004791539 0.0013917856 -0.008885528
-0.015250414 -0.01299384 -0.014411924 -0.009254203 0.021824434 -0.00946744 -0.008114426 0.012652451
-0.012821723 -0.004832928 -0.016538963 -0.00864434 -0.013098082 0.04027263 -0.0052183974 0.00903771
0.020070216 -0.027665835 -0.0028391685 -0.025287282 0.023412928 -0.0044452786 -0.020532154 0.000114239534
-0.0074977893 0.014030459 -0.04637556 0.010100496 0.022187332 0.0014270761 -0.0005661104 0.02230199
0.0035742195 -0.008650039 -0.0121342195 0.004386244 -0.023109937 -0.035429977 0.009761047 0.011483845
0.022187166 -0.0065966626 0.012594075 -0.0012138365 0.0043112473 -0.007957922 0.0052549564 0.001742673
-0.010502806 0.040062986 0.020059437 -0.0033529878 -0.011589892 -0.0043575796 0.0031672793 0.002220126
-0.00233933 -0.0029788502 -0.017365467 0.008497053 -0.0008319041 0.00011948499 -0.008141777 0.023693414
0.03716557 -0.0025095528 -0.010225562 -0.03995669 -0.008042511 0.0058066575 -0.015246464 -0.009723289
0.011555867 -0.03570141 0.030682132 0.0044260435 0.013252342 0.031552322 -0.042510454 -0.02421129
-0.014218354 0.022758702 0.0012913197 -0.023284461 -0.029028157 -0.0008547508 -0.021454679 -0.0038856138
-0.010429551 0.023523122 0.0058031175 0.0039367815 0.0064869686 0.027664522 0.014157595 -0.0074412776
-0.017273366 0.0024817241 -0.0037159284 0.018159254 0.02501911 -0.018197844 0.007988009 -0.016663754
0.0038787571 -0.015030484 0.01313549 0.014858528 0.007495576 0.0071841558 -0.0008635306 -0.026203772
-0.020105764 0.03460761 -0.013253561 -0.03908132 -0.0057637757 -0.018846007 -0.0066230097 -0.010908002
0.035764176 0.0068989466 0.0030839732 0.008931319 0.012432838 -0.0050949426 -0.0034849353 -0.022486169
0.013921948 -0.011606276 -0.0051964116 0.01055769 0.017158844 -0.020164259 -0.012874724 -0.014490893
-0.0060748123 -0.013963575 -0.010684902 -0.008852678 -0.019661285 -0.005332002 -0.02769221 -0.004991864
0.020379256 -0.0020691012 -0.0096503785 0.012633069 -0.006314767 -0.00067263853 0.0073748124 0.0036816853
0.021255588 0.012547593 0.0075142733 0.015666516 0.007175858 -0.00065912114 0.018380512 0.017919824
-0.005309888 0.012775925 0.0014113768 -0.010721345 0.008023988 0.006780618 0.00046761913 -0.047160655
0.0070423 -0.014015684 -0.040116377 0.016633116 0.0006975141 -0.047998644 0.007101259 0.0035470861
0.007925717 0.030851675 0.034063246 -0.014691634 -0.015283923 -0.010822567 0.022082023 0.00331671
-0.024195505 -0.006052865 0.014850452 -0.027550193 -0.01377374 -0.024846684 0.032926694 0.0028300893
0.00018589369 0.013859563 0.008917032 -0.013944442 0.010385446 -0.0027178724 -0.007072049 0.00926876
-0.003876012 -0.017389199 -0.01591465 0.01759288 0.035464108 -0.0015266472 -0.0037743915 0.019636966
00000000: 410e c2bb cc6c 043c 517c f3bb 241b dc3c
00000010: 824e 673c 4bb6 f33c 4fe1 fdbc c589 093c
00000020: b4de a33c 461d 213c e5ce ef3b 9e92 0e3b
00000030: 3535 cb3b a74e 54bb 464b 393c 0686 c33c
00000040: bb5b 033c 5c2b a7bc f556 57bc 1583 a43c
00000050: 8b88 4d3c fe94 913b c4e1 4c3a bacf d03b
00000060: 85a8 22bc 7e30 cbbc f810 323d 52f9 d3bb
00000070: 03e3 31bd 78d5 9abc 7008 ed3b 07d4 65bb
00000080: 71c2 4d3c 9d68 833c f51a c2ba 9668 15bd
00000090: 3a66 de3b 0bdb 1d3c 4ebb 56bc 9514 d93c
000000a0: 06f5 73bc c654 81bc 2b29 4c3b 0b69 4abc
000000b0: 56dc dfbc 5802 9d3b 936c b63a 9b94 11bc
000000c0: dfdc 79bc 1de4 54bc fe1f 6cbc f19e 17bc
000000d0: 28c9 b23c 521d 1bbc 5ff2 04bc 3a4c 4f3c
000000e0: 3412 52bc 8a5d 9ebb b87c 87bc fda0 0dbc
000000f0: 5699 56bc eaf4 243d 17ff aabb e712 143c
00000100: 4b6a a43c 76a3 e2bc 5811 3abb 4627 cfbc
00000110: 78cc bf3c b3a9 91bb 0c33 a8bc e293 ef38
00000120: 04b0 f5bb 03e0 653c 4df4 3dbd 8d7c 253c
00000130: 35c2 b53c ba0c bb3a 0767 14ba aab2 b63c
00000140: 743d 6a3b e5b8 0dbc 9bce 46bc 7bba 8f3b
00000150: 0d51 bdbc 061f 11bd ccec 1f3c bd26 3c3c
00000160: dcc1 b53c d128 d8bb 6157 4e3c 9819 9fba
00000170: 5d45 8d3b f261 02bc c531 ac3b 676a e43a
00000180: f613 2cbc 1619 243d b053 a43c cdbd 5bbb
00000190: 88e3 3dbc 07ca 8ebb 2192 4f3b 897f 113b
000001a0: 724f 19bb d038 43bb 0642 8ebc 3937 0b3c
000001b0: 2414 5aba 0494 fa38 1665 05bc b118 c23c
000001c0: ed3a 183d 4f77 24bb 1e89 27bc a0a9 23bd
000001d0: bcc4 03bc c645 be3b 4ecc 79bc 6e4e 1fbc
000001e0: d254 3d3c a43b 12bd 1859 fb3c 5808 913b
000001f0: 5a20 593c 023d 013d 711f 2ebd c156 c6bc
00000200: 19f4 68bc 7570 ba3c 8041 a93a 0ebf bebc
00000210: 75cc edbc 5b11 60ba b9c1 afbc c8a5 7ebb
00000220: b5e0 2abc 90b3 c03c 1428 be3b 1e00 813b
00000230: a390 d43b b5a0 e23c 42f5 673c f6d5 f3bb
00000240: e080 8dbc 6ca4 223b ef86 73bb b7c2 943c
00000250: e0f4 cc3c a513 95bc 23e0 023c 6d82 88bc
00000260: bf32 7e3b 6b42 76bc 3d36 573c 2f71 733c
00000270: 739d f53b 1169 eb3b 8f5e 62ba 4ba9 d6bc
00000280: d8b4 a4bc b6c0 0d3d 7725 59bc bc13 20bd
00000290: 0ede bcbb f162 9abc d505 d9bb 7ab7 32bc
000002a0: 757d 123d 8f10 e23b 7c1c 4a3b ab54 123c
000002b0: 1ab3 4b3c 7af3 a6bb 8363 64bb ea34 b8bc
000002c0: e218 643c 4028 3ebc a946 aabb 29fa 2c3c
000002d0: b490 8c3c 842f a5bc 82f0 52bc 366b 6dbc
000002e0: 380f c7bb 7ac7 64bc ba0f 2fbc d30a 11bc
000002f0: b410 a1bc 13b8 aebb c6da e2bc ca92 a3bb
00000300: 66f2 a63c c299 07bb 9f1c 1ebc effa 4e3c
00000310: 1bec cebb 0254 30ba 69a8 f13b 6e48 713b
00000320: 3320 ae3c 6b94 4d3c 4b3a f63b 1157 803c
00000330: 7623 eb3b dfc8 2cba ba92 963c 98cc 923c
00000340: 92fe adbb 1d52 513c f2fd b83a 95a8 2fbc
00000350: 0c77 033c f22f de3b c72a f539 882b 41bd
00000360: 18c3 e63b 0aa2 65bc 1251 24bd 2c42 883c
00000370: 61d9 363a 3a9a 44bd aeb1 e83b 3b76 683b
00000380: deda 013c a7bc fc3c e785 0b3d 2eb5 70bc
00000390: 6b69 7abc 2351 31bc 5ce5 b43c 295d 593b
000003a0: a735 c6bc 1d57 c6bb 4f4f 733c f1b0 e1bc
000003b0: 41ab 61bc 468b cbbc 24de 063d 0579 393b
000003c0: 75ec 4239 3813 633c be18 123c 3b77 64bc
000003d0: b827 2a3c 551e 32bb a6bc e7bb ffdb 173c
000003e0: b104 7ebb cb73 8ebc 715f 82bc f21e 903c
000003f0: d042 113d c819 c8ba c85b 77bb b4dd a03c

action_model._continuous_distribution.mu.bias f4 [2]
0.0014338442 -0.0012395364
00000000: d4ef bb3a f177 a2ba
